{
  "nodes": [
    {
      "op": "null", 
      "name": "data", 
      "inputs": []
    }, 
    {
      "op": "null", 
      "name": "conv1_weight", 
      "attr": {
        "__dtype__": "0", 
        "__lr_mult__": "1.0", 
        "__shape__": "(48, 1, 3, 3)", 
        "__storage_type__": "0", 
        "__wd_mult__": "1.0"
      }, 
      "inputs": []
    }, 
    {
      "op": "Convolution", 
      "name": "conv1_fwd", 
      "attr": {
        "dilate": "(1, 1)", 
        "kernel": "(3, 3)", 
        "layout": "NCHW", 
        "no_bias": "True", 
        "num_filter": "48", 
        "num_group": "1", 
        "pad": "(1, 1)", 
        "stride": "(2, 2)"
      }, 
      "inputs": [[0, 0, 0], [1, 0, 0]]
    }, 
    {
      "op": "null", 
      "name": "batchnorm0_gamma", 
      "attr": {
        "__dtype__": "0", 
        "__init__": "ones", 
        "__lr_mult__": "1.0", 
        "__shape__": "(48,)", 
        "__storage_type__": "0", 
        "__wd_mult__": "1.0"
      }, 
      "inputs": []
    }, 
    {
      "op": "null", 
      "name": "batchnorm0_beta", 
      "attr": {
        "__dtype__": "0", 
        "__init__": "zeros", 
        "__lr_mult__": "1.0", 
        "__shape__": "(48,)", 
        "__storage_type__": "0", 
        "__wd_mult__": "1.0"
      }, 
      "inputs": []
    }, 
    {
      "op": "null", 
      "name": "batchnorm0_running_mean", 
      "attr": {
        "__dtype__": "0", 
        "__init__": "zeros", 
        "__lr_mult__": "1.0", 
        "__shape__": "(48,)", 
        "__storage_type__": "0", 
        "__wd_mult__": "1.0"
      }, 
      "inputs": []
    }, 
    {
      "op": "null", 
      "name": "batchnorm0_running_var", 
      "attr": {
        "__dtype__": "0", 
        "__init__": "ones", 
        "__lr_mult__": "1.0", 
        "__shape__": "(48,)", 
        "__storage_type__": "0", 
        "__wd_mult__": "1.0"
      }, 
      "inputs": []
    }, 
    {
      "op": "BatchNorm", 
      "name": "batchnorm0_fwd", 
      "attr": {
        "axis": "1", 
        "cudnn_off": "False", 
        "eps": "2e-05", 
        "fix_gamma": "False", 
        "force_local_stats": "False", 
        "momentum": "0.9", 
        "sync": "False", 
        "use_global_stats": "False"
      }, 
      "inputs": [[2, 0, 0], [3, 0, 0], [4, 0, 0], [5, 0, 1], [6, 0, 1]]
    }, 
    {
      "op": "Activation", 
      "name": "relu0_fwd", 
      "attr": {"act_type": "relu"}, 
      "inputs": [[7, 0, 0]]
    }, 
    {
      "op": "null", 
      "name": "inceptionfactoryb0_conv1_weight", 
      "attr": {
        "__dtype__": "0", 
        "__lr_mult__": "1.0", 
        "__shape__": "(10, 48, 1, 1)", 
        "__storage_type__": "0", 
        "__wd_mult__": "1.0"
      }, 
      "inputs": []
    }, 
    {
      "op": "Convolution", 
      "name": "inceptionfactoryb0_conv1_fwd", 
      "attr": {
        "dilate": "(1, 1)", 
        "kernel": "(1, 1)", 
        "layout": "NCHW", 
        "no_bias": "True", 
        "num_filter": "10", 
        "num_group": "1", 
        "pad": "(0, 0)", 
        "stride": "(1, 1)"
      }, 
      "inputs": [[8, 0, 0], [9, 0, 0]]
    }, 
    {
      "op": "null", 
      "name": "inceptionfactoryb0_batchnorm0_gamma", 
      "attr": {
        "__dtype__": "0", 
        "__init__": "ones", 
        "__lr_mult__": "1.0", 
        "__shape__": "(10,)", 
        "__storage_type__": "0", 
        "__wd_mult__": "1.0"
      }, 
      "inputs": []
    }, 
    {
      "op": "null", 
      "name": "inceptionfactoryb0_batchnorm0_beta", 
      "attr": {
        "__dtype__": "0", 
        "__init__": "zeros", 
        "__lr_mult__": "1.0", 
        "__shape__": "(10,)", 
        "__storage_type__": "0", 
        "__wd_mult__": "1.0"
      }, 
      "inputs": []
    }, 
    {
      "op": "null", 
      "name": "inceptionfactoryb0_batchnorm0_running_mean", 
      "attr": {
        "__dtype__": "0", 
        "__init__": "zeros", 
        "__lr_mult__": "1.0", 
        "__shape__": "(10,)", 
        "__storage_type__": "0", 
        "__wd_mult__": "1.0"
      }, 
      "inputs": []
    }, 
    {
      "op": "null", 
      "name": "inceptionfactoryb0_batchnorm0_running_var", 
      "attr": {
        "__dtype__": "0", 
        "__init__": "ones", 
        "__lr_mult__": "1.0", 
        "__shape__": "(10,)", 
        "__storage_type__": "0", 
        "__wd_mult__": "1.0"
      }, 
      "inputs": []
    }, 
    {
      "op": "BatchNorm", 
      "name": "inceptionfactoryb0_batchnorm0_fwd", 
      "attr": {
        "axis": "1", 
        "cudnn_off": "False", 
        "eps": "2e-05", 
        "fix_gamma": "False", 
        "force_local_stats": "False", 
        "momentum": "0.9", 
        "sync": "False", 
        "use_global_stats": "False"
      }, 
      "inputs": [[10, 0, 0], [11, 0, 0], [12, 0, 0], [13, 0, 1], [14, 0, 1]]
    }, 
    {
      "op": "Activation", 
      "name": "inceptionfactoryb0_relu0_fwd", 
      "attr": {"act_type": "relu"}, 
      "inputs": [[15, 0, 0]]
    }, 
    {
      "op": "null", 
      "name": "inceptionfactoryb0_conv3_weight", 
      "attr": {
        "__dtype__": "0", 
        "__lr_mult__": "1.0", 
        "__shape__": "(12, 10, 3, 3)", 
        "__storage_type__": "0", 
        "__wd_mult__": "1.0"
      }, 
      "inputs": []
    }, 
    {
      "op": "Convolution", 
      "name": "inceptionfactoryb0_conv3_fwd", 
      "attr": {
        "dilate": "(1, 1)", 
        "kernel": "(3, 3)", 
        "layout": "NCHW", 
        "no_bias": "True", 
        "num_filter": "12", 
        "num_group": "1", 
        "pad": "(1, 1)", 
        "stride": "(2, 2)"
      }, 
      "inputs": [[16, 0, 0], [17, 0, 0]]
    }, 
    {
      "op": "null", 
      "name": "inceptionfactoryb0_batchnorm1_gamma", 
      "attr": {
        "__dtype__": "0", 
        "__init__": "ones", 
        "__lr_mult__": "1.0", 
        "__shape__": "(12,)", 
        "__storage_type__": "0", 
        "__wd_mult__": "1.0"
      }, 
      "inputs": []
    }, 
    {
      "op": "null", 
      "name": "inceptionfactoryb0_batchnorm1_beta", 
      "attr": {
        "__dtype__": "0", 
        "__init__": "zeros", 
        "__lr_mult__": "1.0", 
        "__shape__": "(12,)", 
        "__storage_type__": "0", 
        "__wd_mult__": "1.0"
      }, 
      "inputs": []
    }, 
    {
      "op": "null", 
      "name": "inceptionfactoryb0_batchnorm1_running_mean", 
      "attr": {
        "__dtype__": "0", 
        "__init__": "zeros", 
        "__lr_mult__": "1.0", 
        "__shape__": "(12,)", 
        "__storage_type__": "0", 
        "__wd_mult__": "1.0"
      }, 
      "inputs": []
    }, 
    {
      "op": "null", 
      "name": "inceptionfactoryb0_batchnorm1_running_var", 
      "attr": {
        "__dtype__": "0", 
        "__init__": "ones", 
        "__lr_mult__": "1.0", 
        "__shape__": "(12,)", 
        "__storage_type__": "0", 
        "__wd_mult__": "1.0"
      }, 
      "inputs": []
    }, 
    {
      "op": "BatchNorm", 
      "name": "inceptionfactoryb0_batchnorm1_fwd", 
      "attr": {
        "axis": "1", 
        "cudnn_off": "False", 
        "eps": "2e-05", 
        "fix_gamma": "False", 
        "force_local_stats": "False", 
        "momentum": "0.9", 
        "sync": "False", 
        "use_global_stats": "False"
      }, 
      "inputs": [[18, 0, 0], [19, 0, 0], [20, 0, 0], [21, 0, 1], [22, 0, 1]]
    }, 
    {
      "op": "Activation", 
      "name": "inceptionfactoryb0_relu1_fwd", 
      "attr": {"act_type": "relu"}, 
      "inputs": [[23, 0, 0]]
    }, 
    {
      "op": "null", 
      "name": "inceptionfactoryb0_conv5_weight", 
      "attr": {
        "__dtype__": "0", 
        "__lr_mult__": "1.0", 
        "__shape__": "(10, 48, 1, 1)", 
        "__storage_type__": "0", 
        "__wd_mult__": "1.0"
      }, 
      "inputs": []
    }, 
    {
      "op": "Convolution", 
      "name": "inceptionfactoryb0_conv5_fwd", 
      "attr": {
        "dilate": "(1, 1)", 
        "kernel": "(1, 1)", 
        "layout": "NCHW", 
        "no_bias": "True", 
        "num_filter": "10", 
        "num_group": "1", 
        "pad": "(0, 0)", 
        "stride": "(1, 1)"
      }, 
      "inputs": [[8, 0, 0], [25, 0, 0]]
    }, 
    {
      "op": "null", 
      "name": "inceptionfactoryb0_batchnorm2_gamma", 
      "attr": {
        "__dtype__": "0", 
        "__init__": "ones", 
        "__lr_mult__": "1.0", 
        "__shape__": "(10,)", 
        "__storage_type__": "0", 
        "__wd_mult__": "1.0"
      }, 
      "inputs": []
    }, 
    {
      "op": "null", 
      "name": "inceptionfactoryb0_batchnorm2_beta", 
      "attr": {
        "__dtype__": "0", 
        "__init__": "zeros", 
        "__lr_mult__": "1.0", 
        "__shape__": "(10,)", 
        "__storage_type__": "0", 
        "__wd_mult__": "1.0"
      }, 
      "inputs": []
    }, 
    {
      "op": "null", 
      "name": "inceptionfactoryb0_batchnorm2_running_mean", 
      "attr": {
        "__dtype__": "0", 
        "__init__": "zeros", 
        "__lr_mult__": "1.0", 
        "__shape__": "(10,)", 
        "__storage_type__": "0", 
        "__wd_mult__": "1.0"
      }, 
      "inputs": []
    }, 
    {
      "op": "null", 
      "name": "inceptionfactoryb0_batchnorm2_running_var", 
      "attr": {
        "__dtype__": "0", 
        "__init__": "ones", 
        "__lr_mult__": "1.0", 
        "__shape__": "(10,)", 
        "__storage_type__": "0", 
        "__wd_mult__": "1.0"
      }, 
      "inputs": []
    }, 
    {
      "op": "BatchNorm", 
      "name": "inceptionfactoryb0_batchnorm2_fwd", 
      "attr": {
        "axis": "1", 
        "cudnn_off": "False", 
        "eps": "2e-05", 
        "fix_gamma": "False", 
        "force_local_stats": "False", 
        "momentum": "0.9", 
        "sync": "False", 
        "use_global_stats": "False"
      }, 
      "inputs": [[26, 0, 0], [27, 0, 0], [28, 0, 0], [29, 0, 1], [30, 0, 1]]
    }, 
    {
      "op": "Activation", 
      "name": "inceptionfactoryb0_relu2_fwd", 
      "attr": {"act_type": "relu"}, 
      "inputs": [[31, 0, 0]]
    }, 
    {
      "op": "null", 
      "name": "inceptionfactoryb0_conv7_weight", 
      "attr": {
        "__dtype__": "0", 
        "__lr_mult__": "1.0", 
        "__shape__": "(12, 10, 3, 3)", 
        "__storage_type__": "0", 
        "__wd_mult__": "1.0"
      }, 
      "inputs": []
    }, 
    {
      "op": "Convolution", 
      "name": "inceptionfactoryb0_conv7_fwd", 
      "attr": {
        "dilate": "(1, 1)", 
        "kernel": "(3, 3)", 
        "layout": "NCHW", 
        "no_bias": "True", 
        "num_filter": "12", 
        "num_group": "1", 
        "pad": "(1, 1)", 
        "stride": "(1, 1)"
      }, 
      "inputs": [[32, 0, 0], [33, 0, 0]]
    }, 
    {
      "op": "null", 
      "name": "inceptionfactoryb0_batchnorm3_gamma", 
      "attr": {
        "__dtype__": "0", 
        "__init__": "ones", 
        "__lr_mult__": "1.0", 
        "__shape__": "(12,)", 
        "__storage_type__": "0", 
        "__wd_mult__": "1.0"
      }, 
      "inputs": []
    }, 
    {
      "op": "null", 
      "name": "inceptionfactoryb0_batchnorm3_beta", 
      "attr": {
        "__dtype__": "0", 
        "__init__": "zeros", 
        "__lr_mult__": "1.0", 
        "__shape__": "(12,)", 
        "__storage_type__": "0", 
        "__wd_mult__": "1.0"
      }, 
      "inputs": []
    }, 
    {
      "op": "null", 
      "name": "inceptionfactoryb0_batchnorm3_running_mean", 
      "attr": {
        "__dtype__": "0", 
        "__init__": "zeros", 
        "__lr_mult__": "1.0", 
        "__shape__": "(12,)", 
        "__storage_type__": "0", 
        "__wd_mult__": "1.0"
      }, 
      "inputs": []
    }, 
    {
      "op": "null", 
      "name": "inceptionfactoryb0_batchnorm3_running_var", 
      "attr": {
        "__dtype__": "0", 
        "__init__": "ones", 
        "__lr_mult__": "1.0", 
        "__shape__": "(12,)", 
        "__storage_type__": "0", 
        "__wd_mult__": "1.0"
      }, 
      "inputs": []
    }, 
    {
      "op": "BatchNorm", 
      "name": "inceptionfactoryb0_batchnorm3_fwd", 
      "attr": {
        "axis": "1", 
        "cudnn_off": "False", 
        "eps": "2e-05", 
        "fix_gamma": "False", 
        "force_local_stats": "False", 
        "momentum": "0.9", 
        "sync": "False", 
        "use_global_stats": "False"
      }, 
      "inputs": [[34, 0, 0], [35, 0, 0], [36, 0, 0], [37, 0, 1], [38, 0, 1]]
    }, 
    {
      "op": "Activation", 
      "name": "inceptionfactoryb0_relu3_fwd", 
      "attr": {"act_type": "relu"}, 
      "inputs": [[39, 0, 0]]
    }, 
    {
      "op": "null", 
      "name": "inceptionfactoryb0_conv9_weight", 
      "attr": {
        "__dtype__": "0", 
        "__lr_mult__": "1.0", 
        "__shape__": "(12, 12, 3, 3)", 
        "__storage_type__": "0", 
        "__wd_mult__": "1.0"
      }, 
      "inputs": []
    }, 
    {
      "op": "Convolution", 
      "name": "inceptionfactoryb0_conv9_fwd", 
      "attr": {
        "dilate": "(1, 1)", 
        "kernel": "(3, 3)", 
        "layout": "NCHW", 
        "no_bias": "True", 
        "num_filter": "12", 
        "num_group": "1", 
        "pad": "(1, 1)", 
        "stride": "(2, 2)"
      }, 
      "inputs": [[40, 0, 0], [41, 0, 0]]
    }, 
    {
      "op": "null", 
      "name": "inceptionfactoryb0_batchnorm4_gamma", 
      "attr": {
        "__dtype__": "0", 
        "__init__": "ones", 
        "__lr_mult__": "1.0", 
        "__shape__": "(12,)", 
        "__storage_type__": "0", 
        "__wd_mult__": "1.0"
      }, 
      "inputs": []
    }, 
    {
      "op": "null", 
      "name": "inceptionfactoryb0_batchnorm4_beta", 
      "attr": {
        "__dtype__": "0", 
        "__init__": "zeros", 
        "__lr_mult__": "1.0", 
        "__shape__": "(12,)", 
        "__storage_type__": "0", 
        "__wd_mult__": "1.0"
      }, 
      "inputs": []
    }, 
    {
      "op": "null", 
      "name": "inceptionfactoryb0_batchnorm4_running_mean", 
      "attr": {
        "__dtype__": "0", 
        "__init__": "zeros", 
        "__lr_mult__": "1.0", 
        "__shape__": "(12,)", 
        "__storage_type__": "0", 
        "__wd_mult__": "1.0"
      }, 
      "inputs": []
    }, 
    {
      "op": "null", 
      "name": "inceptionfactoryb0_batchnorm4_running_var", 
      "attr": {
        "__dtype__": "0", 
        "__init__": "ones", 
        "__lr_mult__": "1.0", 
        "__shape__": "(12,)", 
        "__storage_type__": "0", 
        "__wd_mult__": "1.0"
      }, 
      "inputs": []
    }, 
    {
      "op": "BatchNorm", 
      "name": "inceptionfactoryb0_batchnorm4_fwd", 
      "attr": {
        "axis": "1", 
        "cudnn_off": "False", 
        "eps": "2e-05", 
        "fix_gamma": "False", 
        "force_local_stats": "False", 
        "momentum": "0.9", 
        "sync": "False", 
        "use_global_stats": "False"
      }, 
      "inputs": [[42, 0, 0], [43, 0, 0], [44, 0, 0], [45, 0, 1], [46, 0, 1]]
    }, 
    {
      "op": "Activation", 
      "name": "inceptionfactoryb0_relu4_fwd", 
      "attr": {"act_type": "relu"}, 
      "inputs": [[47, 0, 0]]
    }, 
    {
      "op": "Pooling", 
      "name": "inceptionfactoryb0_pool0_fwd", 
      "attr": {
        "global_pool": "False", 
        "kernel": "(3, 3)", 
        "layout": "NCHW", 
        "pad": "(1, 1)", 
        "pool_type": "max", 
        "pooling_convention": "valid", 
        "stride": "(2, 2)"
      }, 
      "inputs": [[8, 0, 0]]
    }, 
    {
      "op": "null", 
      "name": "inceptionfactoryb0_conv11_weight", 
      "attr": {
        "__dtype__": "0", 
        "__lr_mult__": "1.0", 
        "__shape__": "(16, 48, 1, 1)", 
        "__storage_type__": "0", 
        "__wd_mult__": "1.0"
      }, 
      "inputs": []
    }, 
    {
      "op": "Convolution", 
      "name": "inceptionfactoryb0_conv11_fwd", 
      "attr": {
        "dilate": "(1, 1)", 
        "kernel": "(1, 1)", 
        "layout": "NCHW", 
        "no_bias": "True", 
        "num_filter": "16", 
        "num_group": "1", 
        "pad": "(0, 0)", 
        "stride": "(1, 1)"
      }, 
      "inputs": [[49, 0, 0], [50, 0, 0]]
    }, 
    {
      "op": "null", 
      "name": "inceptionfactoryb0_batchnorm5_gamma", 
      "attr": {
        "__dtype__": "0", 
        "__init__": "ones", 
        "__lr_mult__": "1.0", 
        "__shape__": "(16,)", 
        "__storage_type__": "0", 
        "__wd_mult__": "1.0"
      }, 
      "inputs": []
    }, 
    {
      "op": "null", 
      "name": "inceptionfactoryb0_batchnorm5_beta", 
      "attr": {
        "__dtype__": "0", 
        "__init__": "zeros", 
        "__lr_mult__": "1.0", 
        "__shape__": "(16,)", 
        "__storage_type__": "0", 
        "__wd_mult__": "1.0"
      }, 
      "inputs": []
    }, 
    {
      "op": "null", 
      "name": "inceptionfactoryb0_batchnorm5_running_mean", 
      "attr": {
        "__dtype__": "0", 
        "__init__": "zeros", 
        "__lr_mult__": "1.0", 
        "__shape__": "(16,)", 
        "__storage_type__": "0", 
        "__wd_mult__": "1.0"
      }, 
      "inputs": []
    }, 
    {
      "op": "null", 
      "name": "inceptionfactoryb0_batchnorm5_running_var", 
      "attr": {
        "__dtype__": "0", 
        "__init__": "ones", 
        "__lr_mult__": "1.0", 
        "__shape__": "(16,)", 
        "__storage_type__": "0", 
        "__wd_mult__": "1.0"
      }, 
      "inputs": []
    }, 
    {
      "op": "BatchNorm", 
      "name": "inceptionfactoryb0_batchnorm5_fwd", 
      "attr": {
        "axis": "1", 
        "cudnn_off": "False", 
        "eps": "2e-05", 
        "fix_gamma": "False", 
        "force_local_stats": "False", 
        "momentum": "0.9", 
        "sync": "False", 
        "use_global_stats": "False"
      }, 
      "inputs": [[51, 0, 0], [52, 0, 0], [53, 0, 0], [54, 0, 1], [55, 0, 1]]
    }, 
    {
      "op": "Activation", 
      "name": "inceptionfactoryb0_relu5_fwd", 
      "attr": {"act_type": "relu"}, 
      "inputs": [[56, 0, 0]]
    }, 
    {
      "op": "Concat", 
      "name": "inceptionfactoryb0_concat0", 
      "attr": {"num_args": "3"}, 
      "inputs": [[24, 0, 0], [48, 0, 0], [57, 0, 0]]
    }, 
    {
      "op": "null", 
      "name": "inceptionfactoryb1_conv1_weight", 
      "attr": {
        "__dtype__": "0", 
        "__lr_mult__": "1.0", 
        "__shape__": "(12, 40, 1, 1)", 
        "__storage_type__": "0", 
        "__wd_mult__": "1.0"
      }, 
      "inputs": []
    }, 
    {
      "op": "Convolution", 
      "name": "inceptionfactoryb1_conv1_fwd", 
      "attr": {
        "dilate": "(1, 1)", 
        "kernel": "(1, 1)", 
        "layout": "NCHW", 
        "no_bias": "True", 
        "num_filter": "12", 
        "num_group": "1", 
        "pad": "(0, 0)", 
        "stride": "(1, 1)"
      }, 
      "inputs": [[58, 0, 0], [59, 0, 0]]
    }, 
    {
      "op": "null", 
      "name": "inceptionfactoryb1_batchnorm0_gamma", 
      "attr": {
        "__dtype__": "0", 
        "__init__": "ones", 
        "__lr_mult__": "1.0", 
        "__shape__": "(12,)", 
        "__storage_type__": "0", 
        "__wd_mult__": "1.0"
      }, 
      "inputs": []
    }, 
    {
      "op": "null", 
      "name": "inceptionfactoryb1_batchnorm0_beta", 
      "attr": {
        "__dtype__": "0", 
        "__init__": "zeros", 
        "__lr_mult__": "1.0", 
        "__shape__": "(12,)", 
        "__storage_type__": "0", 
        "__wd_mult__": "1.0"
      }, 
      "inputs": []
    }, 
    {
      "op": "null", 
      "name": "inceptionfactoryb1_batchnorm0_running_mean", 
      "attr": {
        "__dtype__": "0", 
        "__init__": "zeros", 
        "__lr_mult__": "1.0", 
        "__shape__": "(12,)", 
        "__storage_type__": "0", 
        "__wd_mult__": "1.0"
      }, 
      "inputs": []
    }, 
    {
      "op": "null", 
      "name": "inceptionfactoryb1_batchnorm0_running_var", 
      "attr": {
        "__dtype__": "0", 
        "__init__": "ones", 
        "__lr_mult__": "1.0", 
        "__shape__": "(12,)", 
        "__storage_type__": "0", 
        "__wd_mult__": "1.0"
      }, 
      "inputs": []
    }, 
    {
      "op": "BatchNorm", 
      "name": "inceptionfactoryb1_batchnorm0_fwd", 
      "attr": {
        "axis": "1", 
        "cudnn_off": "False", 
        "eps": "2e-05", 
        "fix_gamma": "False", 
        "force_local_stats": "False", 
        "momentum": "0.9", 
        "sync": "False", 
        "use_global_stats": "False"
      }, 
      "inputs": [[60, 0, 0], [61, 0, 0], [62, 0, 0], [63, 0, 1], [64, 0, 1]]
    }, 
    {
      "op": "Activation", 
      "name": "inceptionfactoryb1_relu0_fwd", 
      "attr": {"act_type": "relu"}, 
      "inputs": [[65, 0, 0]]
    }, 
    {
      "op": "null", 
      "name": "inceptionfactoryb1_conv3_weight", 
      "attr": {
        "__dtype__": "0", 
        "__lr_mult__": "1.0", 
        "__shape__": "(24, 12, 3, 3)", 
        "__storage_type__": "0", 
        "__wd_mult__": "1.0"
      }, 
      "inputs": []
    }, 
    {
      "op": "Convolution", 
      "name": "inceptionfactoryb1_conv3_fwd", 
      "attr": {
        "dilate": "(1, 1)", 
        "kernel": "(3, 3)", 
        "layout": "NCHW", 
        "no_bias": "True", 
        "num_filter": "24", 
        "num_group": "1", 
        "pad": "(0, 0)", 
        "stride": "(2, 2)"
      }, 
      "inputs": [[66, 0, 0], [67, 0, 0]]
    }, 
    {
      "op": "null", 
      "name": "inceptionfactoryb1_batchnorm1_gamma", 
      "attr": {
        "__dtype__": "0", 
        "__init__": "ones", 
        "__lr_mult__": "1.0", 
        "__shape__": "(24,)", 
        "__storage_type__": "0", 
        "__wd_mult__": "1.0"
      }, 
      "inputs": []
    }, 
    {
      "op": "null", 
      "name": "inceptionfactoryb1_batchnorm1_beta", 
      "attr": {
        "__dtype__": "0", 
        "__init__": "zeros", 
        "__lr_mult__": "1.0", 
        "__shape__": "(24,)", 
        "__storage_type__": "0", 
        "__wd_mult__": "1.0"
      }, 
      "inputs": []
    }, 
    {
      "op": "null", 
      "name": "inceptionfactoryb1_batchnorm1_running_mean", 
      "attr": {
        "__dtype__": "0", 
        "__init__": "zeros", 
        "__lr_mult__": "1.0", 
        "__shape__": "(24,)", 
        "__storage_type__": "0", 
        "__wd_mult__": "1.0"
      }, 
      "inputs": []
    }, 
    {
      "op": "null", 
      "name": "inceptionfactoryb1_batchnorm1_running_var", 
      "attr": {
        "__dtype__": "0", 
        "__init__": "ones", 
        "__lr_mult__": "1.0", 
        "__shape__": "(24,)", 
        "__storage_type__": "0", 
        "__wd_mult__": "1.0"
      }, 
      "inputs": []
    }, 
    {
      "op": "BatchNorm", 
      "name": "inceptionfactoryb1_batchnorm1_fwd", 
      "attr": {
        "axis": "1", 
        "cudnn_off": "False", 
        "eps": "2e-05", 
        "fix_gamma": "False", 
        "force_local_stats": "False", 
        "momentum": "0.9", 
        "sync": "False", 
        "use_global_stats": "False"
      }, 
      "inputs": [[68, 0, 0], [69, 0, 0], [70, 0, 0], [71, 0, 1], [72, 0, 1]]
    }, 
    {
      "op": "Activation", 
      "name": "inceptionfactoryb1_relu1_fwd", 
      "attr": {"act_type": "relu"}, 
      "inputs": [[73, 0, 0]]
    }, 
    {
      "op": "null", 
      "name": "inceptionfactoryb1_conv5_weight", 
      "attr": {
        "__dtype__": "0", 
        "__lr_mult__": "1.0", 
        "__shape__": "(12, 40, 1, 1)", 
        "__storage_type__": "0", 
        "__wd_mult__": "1.0"
      }, 
      "inputs": []
    }, 
    {
      "op": "Convolution", 
      "name": "inceptionfactoryb1_conv5_fwd", 
      "attr": {
        "dilate": "(1, 1)", 
        "kernel": "(1, 1)", 
        "layout": "NCHW", 
        "no_bias": "True", 
        "num_filter": "12", 
        "num_group": "1", 
        "pad": "(0, 0)", 
        "stride": "(1, 1)"
      }, 
      "inputs": [[58, 0, 0], [75, 0, 0]]
    }, 
    {
      "op": "null", 
      "name": "inceptionfactoryb1_batchnorm2_gamma", 
      "attr": {
        "__dtype__": "0", 
        "__init__": "ones", 
        "__lr_mult__": "1.0", 
        "__shape__": "(12,)", 
        "__storage_type__": "0", 
        "__wd_mult__": "1.0"
      }, 
      "inputs": []
    }, 
    {
      "op": "null", 
      "name": "inceptionfactoryb1_batchnorm2_beta", 
      "attr": {
        "__dtype__": "0", 
        "__init__": "zeros", 
        "__lr_mult__": "1.0", 
        "__shape__": "(12,)", 
        "__storage_type__": "0", 
        "__wd_mult__": "1.0"
      }, 
      "inputs": []
    }, 
    {
      "op": "null", 
      "name": "inceptionfactoryb1_batchnorm2_running_mean", 
      "attr": {
        "__dtype__": "0", 
        "__init__": "zeros", 
        "__lr_mult__": "1.0", 
        "__shape__": "(12,)", 
        "__storage_type__": "0", 
        "__wd_mult__": "1.0"
      }, 
      "inputs": []
    }, 
    {
      "op": "null", 
      "name": "inceptionfactoryb1_batchnorm2_running_var", 
      "attr": {
        "__dtype__": "0", 
        "__init__": "ones", 
        "__lr_mult__": "1.0", 
        "__shape__": "(12,)", 
        "__storage_type__": "0", 
        "__wd_mult__": "1.0"
      }, 
      "inputs": []
    }, 
    {
      "op": "BatchNorm", 
      "name": "inceptionfactoryb1_batchnorm2_fwd", 
      "attr": {
        "axis": "1", 
        "cudnn_off": "False", 
        "eps": "2e-05", 
        "fix_gamma": "False", 
        "force_local_stats": "False", 
        "momentum": "0.9", 
        "sync": "False", 
        "use_global_stats": "False"
      }, 
      "inputs": [[76, 0, 0], [77, 0, 0], [78, 0, 0], [79, 0, 1], [80, 0, 1]]
    }, 
    {
      "op": "Activation", 
      "name": "inceptionfactoryb1_relu2_fwd", 
      "attr": {"act_type": "relu"}, 
      "inputs": [[81, 0, 0]]
    }, 
    {
      "op": "null", 
      "name": "inceptionfactoryb1_conv7_weight", 
      "attr": {
        "__dtype__": "0", 
        "__lr_mult__": "1.0", 
        "__shape__": "(24, 12, 3, 3)", 
        "__storage_type__": "0", 
        "__wd_mult__": "1.0"
      }, 
      "inputs": []
    }, 
    {
      "op": "Convolution", 
      "name": "inceptionfactoryb1_conv7_fwd", 
      "attr": {
        "dilate": "(1, 1)", 
        "kernel": "(3, 3)", 
        "layout": "NCHW", 
        "no_bias": "True", 
        "num_filter": "24", 
        "num_group": "1", 
        "pad": "(1, 1)", 
        "stride": "(1, 1)"
      }, 
      "inputs": [[82, 0, 0], [83, 0, 0]]
    }, 
    {
      "op": "null", 
      "name": "inceptionfactoryb1_batchnorm3_gamma", 
      "attr": {
        "__dtype__": "0", 
        "__init__": "ones", 
        "__lr_mult__": "1.0", 
        "__shape__": "(24,)", 
        "__storage_type__": "0", 
        "__wd_mult__": "1.0"
      }, 
      "inputs": []
    }, 
    {
      "op": "null", 
      "name": "inceptionfactoryb1_batchnorm3_beta", 
      "attr": {
        "__dtype__": "0", 
        "__init__": "zeros", 
        "__lr_mult__": "1.0", 
        "__shape__": "(24,)", 
        "__storage_type__": "0", 
        "__wd_mult__": "1.0"
      }, 
      "inputs": []
    }, 
    {
      "op": "null", 
      "name": "inceptionfactoryb1_batchnorm3_running_mean", 
      "attr": {
        "__dtype__": "0", 
        "__init__": "zeros", 
        "__lr_mult__": "1.0", 
        "__shape__": "(24,)", 
        "__storage_type__": "0", 
        "__wd_mult__": "1.0"
      }, 
      "inputs": []
    }, 
    {
      "op": "null", 
      "name": "inceptionfactoryb1_batchnorm3_running_var", 
      "attr": {
        "__dtype__": "0", 
        "__init__": "ones", 
        "__lr_mult__": "1.0", 
        "__shape__": "(24,)", 
        "__storage_type__": "0", 
        "__wd_mult__": "1.0"
      }, 
      "inputs": []
    }, 
    {
      "op": "BatchNorm", 
      "name": "inceptionfactoryb1_batchnorm3_fwd", 
      "attr": {
        "axis": "1", 
        "cudnn_off": "False", 
        "eps": "2e-05", 
        "fix_gamma": "False", 
        "force_local_stats": "False", 
        "momentum": "0.9", 
        "sync": "False", 
        "use_global_stats": "False"
      }, 
      "inputs": [[84, 0, 0], [85, 0, 0], [86, 0, 0], [87, 0, 1], [88, 0, 1]]
    }, 
    {
      "op": "Activation", 
      "name": "inceptionfactoryb1_relu3_fwd", 
      "attr": {"act_type": "relu"}, 
      "inputs": [[89, 0, 0]]
    }, 
    {
      "op": "null", 
      "name": "inceptionfactoryb1_conv9_weight", 
      "attr": {
        "__dtype__": "0", 
        "__lr_mult__": "1.0", 
        "__shape__": "(24, 24, 3, 3)", 
        "__storage_type__": "0", 
        "__wd_mult__": "1.0"
      }, 
      "inputs": []
    }, 
    {
      "op": "Convolution", 
      "name": "inceptionfactoryb1_conv9_fwd", 
      "attr": {
        "dilate": "(1, 1)", 
        "kernel": "(3, 3)", 
        "layout": "NCHW", 
        "no_bias": "True", 
        "num_filter": "24", 
        "num_group": "1", 
        "pad": "(0, 0)", 
        "stride": "(2, 2)"
      }, 
      "inputs": [[90, 0, 0], [91, 0, 0]]
    }, 
    {
      "op": "null", 
      "name": "inceptionfactoryb1_batchnorm4_gamma", 
      "attr": {
        "__dtype__": "0", 
        "__init__": "ones", 
        "__lr_mult__": "1.0", 
        "__shape__": "(24,)", 
        "__storage_type__": "0", 
        "__wd_mult__": "1.0"
      }, 
      "inputs": []
    }, 
    {
      "op": "null", 
      "name": "inceptionfactoryb1_batchnorm4_beta", 
      "attr": {
        "__dtype__": "0", 
        "__init__": "zeros", 
        "__lr_mult__": "1.0", 
        "__shape__": "(24,)", 
        "__storage_type__": "0", 
        "__wd_mult__": "1.0"
      }, 
      "inputs": []
    }, 
    {
      "op": "null", 
      "name": "inceptionfactoryb1_batchnorm4_running_mean", 
      "attr": {
        "__dtype__": "0", 
        "__init__": "zeros", 
        "__lr_mult__": "1.0", 
        "__shape__": "(24,)", 
        "__storage_type__": "0", 
        "__wd_mult__": "1.0"
      }, 
      "inputs": []
    }, 
    {
      "op": "null", 
      "name": "inceptionfactoryb1_batchnorm4_running_var", 
      "attr": {
        "__dtype__": "0", 
        "__init__": "ones", 
        "__lr_mult__": "1.0", 
        "__shape__": "(24,)", 
        "__storage_type__": "0", 
        "__wd_mult__": "1.0"
      }, 
      "inputs": []
    }, 
    {
      "op": "BatchNorm", 
      "name": "inceptionfactoryb1_batchnorm4_fwd", 
      "attr": {
        "axis": "1", 
        "cudnn_off": "False", 
        "eps": "2e-05", 
        "fix_gamma": "False", 
        "force_local_stats": "False", 
        "momentum": "0.9", 
        "sync": "False", 
        "use_global_stats": "False"
      }, 
      "inputs": [[92, 0, 0], [93, 0, 0], [94, 0, 0], [95, 0, 1], [96, 0, 1]]
    }, 
    {
      "op": "Activation", 
      "name": "inceptionfactoryb1_relu4_fwd", 
      "attr": {"act_type": "relu"}, 
      "inputs": [[97, 0, 0]]
    }, 
    {
      "op": "Pooling", 
      "name": "inceptionfactoryb1_pool0_fwd", 
      "attr": {
        "global_pool": "False", 
        "kernel": "(3, 3)", 
        "layout": "NCHW", 
        "pad": "(0, 0)", 
        "pool_type": "max", 
        "pooling_convention": "valid", 
        "stride": "(2, 2)"
      }, 
      "inputs": [[58, 0, 0]]
    }, 
    {
      "op": "null", 
      "name": "inceptionfactoryb1_conv11_weight", 
      "attr": {
        "__dtype__": "0", 
        "__lr_mult__": "1.0", 
        "__shape__": "(24, 40, 1, 1)", 
        "__storage_type__": "0", 
        "__wd_mult__": "1.0"
      }, 
      "inputs": []
    }, 
    {
      "op": "Convolution", 
      "name": "inceptionfactoryb1_conv11_fwd", 
      "attr": {
        "dilate": "(1, 1)", 
        "kernel": "(1, 1)", 
        "layout": "NCHW", 
        "no_bias": "True", 
        "num_filter": "24", 
        "num_group": "1", 
        "pad": "(0, 0)", 
        "stride": "(1, 1)"
      }, 
      "inputs": [[99, 0, 0], [100, 0, 0]]
    }, 
    {
      "op": "null", 
      "name": "inceptionfactoryb1_batchnorm5_gamma", 
      "attr": {
        "__dtype__": "0", 
        "__init__": "ones", 
        "__lr_mult__": "1.0", 
        "__shape__": "(24,)", 
        "__storage_type__": "0", 
        "__wd_mult__": "1.0"
      }, 
      "inputs": []
    }, 
    {
      "op": "null", 
      "name": "inceptionfactoryb1_batchnorm5_beta", 
      "attr": {
        "__dtype__": "0", 
        "__init__": "zeros", 
        "__lr_mult__": "1.0", 
        "__shape__": "(24,)", 
        "__storage_type__": "0", 
        "__wd_mult__": "1.0"
      }, 
      "inputs": []
    }, 
    {
      "op": "null", 
      "name": "inceptionfactoryb1_batchnorm5_running_mean", 
      "attr": {
        "__dtype__": "0", 
        "__init__": "zeros", 
        "__lr_mult__": "1.0", 
        "__shape__": "(24,)", 
        "__storage_type__": "0", 
        "__wd_mult__": "1.0"
      }, 
      "inputs": []
    }, 
    {
      "op": "null", 
      "name": "inceptionfactoryb1_batchnorm5_running_var", 
      "attr": {
        "__dtype__": "0", 
        "__init__": "ones", 
        "__lr_mult__": "1.0", 
        "__shape__": "(24,)", 
        "__storage_type__": "0", 
        "__wd_mult__": "1.0"
      }, 
      "inputs": []
    }, 
    {
      "op": "BatchNorm", 
      "name": "inceptionfactoryb1_batchnorm5_fwd", 
      "attr": {
        "axis": "1", 
        "cudnn_off": "False", 
        "eps": "2e-05", 
        "fix_gamma": "False", 
        "force_local_stats": "False", 
        "momentum": "0.9", 
        "sync": "False", 
        "use_global_stats": "False"
      }, 
      "inputs": [[101, 0, 0], [102, 0, 0], [103, 0, 0], [104, 0, 1], [105, 0, 1]]
    }, 
    {
      "op": "Activation", 
      "name": "inceptionfactoryb1_relu5_fwd", 
      "attr": {"act_type": "relu"}, 
      "inputs": [[106, 0, 0]]
    }, 
    {
      "op": "Concat", 
      "name": "inceptionfactoryb1_concat0", 
      "attr": {"num_args": "3"}, 
      "inputs": [[74, 0, 0], [98, 0, 0], [107, 0, 0]]
    }, 
    {
      "op": "null", 
      "name": "inceptionfactoryc0_conv1_weight", 
      "attr": {
        "__dtype__": "0", 
        "__lr_mult__": "1.0", 
        "__shape__": "(24, 72, 1, 1)", 
        "__storage_type__": "0", 
        "__wd_mult__": "1.0"
      }, 
      "inputs": []
    }, 
    {
      "op": "Convolution", 
      "name": "inceptionfactoryc0_conv1_fwd", 
      "attr": {
        "dilate": "(1, 1)", 
        "kernel": "(1, 1)", 
        "layout": "NCHW", 
        "no_bias": "True", 
        "num_filter": "24", 
        "num_group": "1", 
        "pad": "(0, 0)", 
        "stride": "(1, 1)"
      }, 
      "inputs": [[108, 0, 0], [109, 0, 0]]
    }, 
    {
      "op": "null", 
      "name": "inceptionfactoryc0_batchnorm0_gamma", 
      "attr": {
        "__dtype__": "0", 
        "__init__": "ones", 
        "__lr_mult__": "1.0", 
        "__shape__": "(24,)", 
        "__storage_type__": "0", 
        "__wd_mult__": "1.0"
      }, 
      "inputs": []
    }, 
    {
      "op": "null", 
      "name": "inceptionfactoryc0_batchnorm0_beta", 
      "attr": {
        "__dtype__": "0", 
        "__init__": "zeros", 
        "__lr_mult__": "1.0", 
        "__shape__": "(24,)", 
        "__storage_type__": "0", 
        "__wd_mult__": "1.0"
      }, 
      "inputs": []
    }, 
    {
      "op": "null", 
      "name": "inceptionfactoryc0_batchnorm0_running_mean", 
      "attr": {
        "__dtype__": "0", 
        "__init__": "zeros", 
        "__lr_mult__": "1.0", 
        "__shape__": "(24,)", 
        "__storage_type__": "0", 
        "__wd_mult__": "1.0"
      }, 
      "inputs": []
    }, 
    {
      "op": "null", 
      "name": "inceptionfactoryc0_batchnorm0_running_var", 
      "attr": {
        "__dtype__": "0", 
        "__init__": "ones", 
        "__lr_mult__": "1.0", 
        "__shape__": "(24,)", 
        "__storage_type__": "0", 
        "__wd_mult__": "1.0"
      }, 
      "inputs": []
    }, 
    {
      "op": "BatchNorm", 
      "name": "inceptionfactoryc0_batchnorm0_fwd", 
      "attr": {
        "axis": "1", 
        "cudnn_off": "False", 
        "eps": "2e-05", 
        "fix_gamma": "False", 
        "force_local_stats": "False", 
        "momentum": "0.9", 
        "sync": "False", 
        "use_global_stats": "False"
      }, 
      "inputs": [[110, 0, 0], [111, 0, 0], [112, 0, 0], [113, 0, 1], [114, 0, 1]]
    }, 
    {
      "op": "Activation", 
      "name": "inceptionfactoryc0_relu0_fwd", 
      "attr": {"act_type": "relu"}, 
      "inputs": [[115, 0, 0]]
    }, 
    {
      "op": "null", 
      "name": "inceptionfactoryc0_conv3_weight", 
      "attr": {
        "__dtype__": "0", 
        "__lr_mult__": "1.0", 
        "__shape__": "(96, 24, 3, 3)", 
        "__storage_type__": "0", 
        "__wd_mult__": "1.0"
      }, 
      "inputs": []
    }, 
    {
      "op": "Convolution", 
      "name": "inceptionfactoryc0_conv3_fwd", 
      "attr": {
        "dilate": "(1, 1)", 
        "kernel": "(3, 3)", 
        "layout": "NCHW", 
        "no_bias": "True", 
        "num_filter": "96", 
        "num_group": "1", 
        "pad": "(0, 0)", 
        "stride": "(2, 2)"
      }, 
      "inputs": [[116, 0, 0], [117, 0, 0]]
    }, 
    {
      "op": "null", 
      "name": "inceptionfactoryc0_batchnorm1_gamma", 
      "attr": {
        "__dtype__": "0", 
        "__init__": "ones", 
        "__lr_mult__": "1.0", 
        "__shape__": "(96,)", 
        "__storage_type__": "0", 
        "__wd_mult__": "1.0"
      }, 
      "inputs": []
    }, 
    {
      "op": "null", 
      "name": "inceptionfactoryc0_batchnorm1_beta", 
      "attr": {
        "__dtype__": "0", 
        "__init__": "zeros", 
        "__lr_mult__": "1.0", 
        "__shape__": "(96,)", 
        "__storage_type__": "0", 
        "__wd_mult__": "1.0"
      }, 
      "inputs": []
    }, 
    {
      "op": "null", 
      "name": "inceptionfactoryc0_batchnorm1_running_mean", 
      "attr": {
        "__dtype__": "0", 
        "__init__": "zeros", 
        "__lr_mult__": "1.0", 
        "__shape__": "(96,)", 
        "__storage_type__": "0", 
        "__wd_mult__": "1.0"
      }, 
      "inputs": []
    }, 
    {
      "op": "null", 
      "name": "inceptionfactoryc0_batchnorm1_running_var", 
      "attr": {
        "__dtype__": "0", 
        "__init__": "ones", 
        "__lr_mult__": "1.0", 
        "__shape__": "(96,)", 
        "__storage_type__": "0", 
        "__wd_mult__": "1.0"
      }, 
      "inputs": []
    }, 
    {
      "op": "BatchNorm", 
      "name": "inceptionfactoryc0_batchnorm1_fwd", 
      "attr": {
        "axis": "1", 
        "cudnn_off": "False", 
        "eps": "2e-05", 
        "fix_gamma": "False", 
        "force_local_stats": "False", 
        "momentum": "0.9", 
        "sync": "False", 
        "use_global_stats": "False"
      }, 
      "inputs": [[118, 0, 0], [119, 0, 0], [120, 0, 0], [121, 0, 1], [122, 0, 1]]
    }, 
    {
      "op": "Activation", 
      "name": "inceptionfactoryc0_relu1_fwd", 
      "attr": {"act_type": "relu"}, 
      "inputs": [[123, 0, 0]]
    }, 
    {
      "op": "Pooling", 
      "name": "inceptionfactoryc0_pool0_fwd", 
      "attr": {
        "global_pool": "False", 
        "kernel": "(3, 3)", 
        "layout": "NCHW", 
        "pad": "(0, 0)", 
        "pool_type": "max", 
        "pooling_convention": "valid", 
        "stride": "(2, 2)"
      }, 
      "inputs": [[108, 0, 0]]
    }, 
    {
      "op": "null", 
      "name": "inceptionfactoryc0_conv5_weight", 
      "attr": {
        "__dtype__": "0", 
        "__lr_mult__": "1.0", 
        "__shape__": "(96, 72, 1, 1)", 
        "__storage_type__": "0", 
        "__wd_mult__": "1.0"
      }, 
      "inputs": []
    }, 
    {
      "op": "Convolution", 
      "name": "inceptionfactoryc0_conv5_fwd", 
      "attr": {
        "dilate": "(1, 1)", 
        "kernel": "(1, 1)", 
        "layout": "NCHW", 
        "no_bias": "True", 
        "num_filter": "96", 
        "num_group": "1", 
        "pad": "(0, 0)", 
        "stride": "(1, 1)"
      }, 
      "inputs": [[125, 0, 0], [126, 0, 0]]
    }, 
    {
      "op": "null", 
      "name": "inceptionfactoryc0_batchnorm2_gamma", 
      "attr": {
        "__dtype__": "0", 
        "__init__": "ones", 
        "__lr_mult__": "1.0", 
        "__shape__": "(96,)", 
        "__storage_type__": "0", 
        "__wd_mult__": "1.0"
      }, 
      "inputs": []
    }, 
    {
      "op": "null", 
      "name": "inceptionfactoryc0_batchnorm2_beta", 
      "attr": {
        "__dtype__": "0", 
        "__init__": "zeros", 
        "__lr_mult__": "1.0", 
        "__shape__": "(96,)", 
        "__storage_type__": "0", 
        "__wd_mult__": "1.0"
      }, 
      "inputs": []
    }, 
    {
      "op": "null", 
      "name": "inceptionfactoryc0_batchnorm2_running_mean", 
      "attr": {
        "__dtype__": "0", 
        "__init__": "zeros", 
        "__lr_mult__": "1.0", 
        "__shape__": "(96,)", 
        "__storage_type__": "0", 
        "__wd_mult__": "1.0"
      }, 
      "inputs": []
    }, 
    {
      "op": "null", 
      "name": "inceptionfactoryc0_batchnorm2_running_var", 
      "attr": {
        "__dtype__": "0", 
        "__init__": "ones", 
        "__lr_mult__": "1.0", 
        "__shape__": "(96,)", 
        "__storage_type__": "0", 
        "__wd_mult__": "1.0"
      }, 
      "inputs": []
    }, 
    {
      "op": "BatchNorm", 
      "name": "inceptionfactoryc0_batchnorm2_fwd", 
      "attr": {
        "axis": "1", 
        "cudnn_off": "False", 
        "eps": "2e-05", 
        "fix_gamma": "False", 
        "force_local_stats": "False", 
        "momentum": "0.9", 
        "sync": "False", 
        "use_global_stats": "False"
      }, 
      "inputs": [[127, 0, 0], [128, 0, 0], [129, 0, 0], [130, 0, 1], [131, 0, 1]]
    }, 
    {
      "op": "Activation", 
      "name": "inceptionfactoryc0_relu2_fwd", 
      "attr": {"act_type": "relu"}, 
      "inputs": [[132, 0, 0]]
    }, 
    {
      "op": "Concat", 
      "name": "inceptionfactoryc0_concat0", 
      "attr": {"num_args": "2"}, 
      "inputs": [[124, 0, 0], [133, 0, 0]]
    }, 
    {
      "op": "null", 
      "name": "inceptionfactoryc1_conv1_weight", 
      "attr": {
        "__dtype__": "0", 
        "__lr_mult__": "1.0", 
        "__shape__": "(72, 192, 1, 1)", 
        "__storage_type__": "0", 
        "__wd_mult__": "1.0"
      }, 
      "inputs": []
    }, 
    {
      "op": "Convolution", 
      "name": "inceptionfactoryc1_conv1_fwd", 
      "attr": {
        "dilate": "(1, 1)", 
        "kernel": "(1, 1)", 
        "layout": "NCHW", 
        "no_bias": "True", 
        "num_filter": "72", 
        "num_group": "1", 
        "pad": "(0, 0)", 
        "stride": "(1, 1)"
      }, 
      "inputs": [[134, 0, 0], [135, 0, 0]]
    }, 
    {
      "op": "null", 
      "name": "inceptionfactoryc1_batchnorm0_gamma", 
      "attr": {
        "__dtype__": "0", 
        "__init__": "ones", 
        "__lr_mult__": "1.0", 
        "__shape__": "(72,)", 
        "__storage_type__": "0", 
        "__wd_mult__": "1.0"
      }, 
      "inputs": []
    }, 
    {
      "op": "null", 
      "name": "inceptionfactoryc1_batchnorm0_beta", 
      "attr": {
        "__dtype__": "0", 
        "__init__": "zeros", 
        "__lr_mult__": "1.0", 
        "__shape__": "(72,)", 
        "__storage_type__": "0", 
        "__wd_mult__": "1.0"
      }, 
      "inputs": []
    }, 
    {
      "op": "null", 
      "name": "inceptionfactoryc1_batchnorm0_running_mean", 
      "attr": {
        "__dtype__": "0", 
        "__init__": "zeros", 
        "__lr_mult__": "1.0", 
        "__shape__": "(72,)", 
        "__storage_type__": "0", 
        "__wd_mult__": "1.0"
      }, 
      "inputs": []
    }, 
    {
      "op": "null", 
      "name": "inceptionfactoryc1_batchnorm0_running_var", 
      "attr": {
        "__dtype__": "0", 
        "__init__": "ones", 
        "__lr_mult__": "1.0", 
        "__shape__": "(72,)", 
        "__storage_type__": "0", 
        "__wd_mult__": "1.0"
      }, 
      "inputs": []
    }, 
    {
      "op": "BatchNorm", 
      "name": "inceptionfactoryc1_batchnorm0_fwd", 
      "attr": {
        "axis": "1", 
        "cudnn_off": "False", 
        "eps": "2e-05", 
        "fix_gamma": "False", 
        "force_local_stats": "False", 
        "momentum": "0.9", 
        "sync": "False", 
        "use_global_stats": "False"
      }, 
      "inputs": [[136, 0, 0], [137, 0, 0], [138, 0, 0], [139, 0, 1], [140, 0, 1]]
    }, 
    {
      "op": "Activation", 
      "name": "inceptionfactoryc1_relu0_fwd", 
      "attr": {"act_type": "relu"}, 
      "inputs": [[141, 0, 0]]
    }, 
    {
      "op": "null", 
      "name": "inceptionfactoryc1_conv3_weight", 
      "attr": {
        "__dtype__": "0", 
        "__lr_mult__": "1.0", 
        "__shape__": "(288, 72, 3, 3)", 
        "__storage_type__": "0", 
        "__wd_mult__": "1.0"
      }, 
      "inputs": []
    }, 
    {
      "op": "Convolution", 
      "name": "inceptionfactoryc1_conv3_fwd", 
      "attr": {
        "dilate": "(1, 1)", 
        "kernel": "(3, 3)", 
        "layout": "NCHW", 
        "no_bias": "True", 
        "num_filter": "288", 
        "num_group": "1", 
        "pad": "(0, 0)", 
        "stride": "(1, 1)"
      }, 
      "inputs": [[142, 0, 0], [143, 0, 0]]
    }, 
    {
      "op": "null", 
      "name": "inceptionfactoryc1_batchnorm1_gamma", 
      "attr": {
        "__dtype__": "0", 
        "__init__": "ones", 
        "__lr_mult__": "1.0", 
        "__shape__": "(288,)", 
        "__storage_type__": "0", 
        "__wd_mult__": "1.0"
      }, 
      "inputs": []
    }, 
    {
      "op": "null", 
      "name": "inceptionfactoryc1_batchnorm1_beta", 
      "attr": {
        "__dtype__": "0", 
        "__init__": "zeros", 
        "__lr_mult__": "1.0", 
        "__shape__": "(288,)", 
        "__storage_type__": "0", 
        "__wd_mult__": "1.0"
      }, 
      "inputs": []
    }, 
    {
      "op": "null", 
      "name": "inceptionfactoryc1_batchnorm1_running_mean", 
      "attr": {
        "__dtype__": "0", 
        "__init__": "zeros", 
        "__lr_mult__": "1.0", 
        "__shape__": "(288,)", 
        "__storage_type__": "0", 
        "__wd_mult__": "1.0"
      }, 
      "inputs": []
    }, 
    {
      "op": "null", 
      "name": "inceptionfactoryc1_batchnorm1_running_var", 
      "attr": {
        "__dtype__": "0", 
        "__init__": "ones", 
        "__lr_mult__": "1.0", 
        "__shape__": "(288,)", 
        "__storage_type__": "0", 
        "__wd_mult__": "1.0"
      }, 
      "inputs": []
    }, 
    {
      "op": "BatchNorm", 
      "name": "inceptionfactoryc1_batchnorm1_fwd", 
      "attr": {
        "axis": "1", 
        "cudnn_off": "False", 
        "eps": "2e-05", 
        "fix_gamma": "False", 
        "force_local_stats": "False", 
        "momentum": "0.9", 
        "sync": "False", 
        "use_global_stats": "False"
      }, 
      "inputs": [[144, 0, 0], [145, 0, 0], [146, 0, 0], [147, 0, 1], [148, 0, 1]]
    }, 
    {
      "op": "Activation", 
      "name": "inceptionfactoryc1_relu1_fwd", 
      "attr": {"act_type": "relu"}, 
      "inputs": [[149, 0, 0]]
    }, 
    {
      "op": "Pooling", 
      "name": "inceptionfactoryc1_pool0_fwd", 
      "attr": {
        "count_include_pad": "True", 
        "global_pool": "False", 
        "kernel": "(3, 3)", 
        "layout": "NCHW", 
        "pad": "(0, 0)", 
        "pool_type": "avg", 
        "pooling_convention": "valid", 
        "stride": "(1, 1)"
      }, 
      "inputs": [[134, 0, 0]]
    }, 
    {
      "op": "null", 
      "name": "inceptionfactoryc1_conv5_weight", 
      "attr": {
        "__dtype__": "0", 
        "__lr_mult__": "1.0", 
        "__shape__": "(288, 192, 1, 1)", 
        "__storage_type__": "0", 
        "__wd_mult__": "1.0"
      }, 
      "inputs": []
    }, 
    {
      "op": "Convolution", 
      "name": "inceptionfactoryc1_conv5_fwd", 
      "attr": {
        "dilate": "(1, 1)", 
        "kernel": "(1, 1)", 
        "layout": "NCHW", 
        "no_bias": "True", 
        "num_filter": "288", 
        "num_group": "1", 
        "pad": "(0, 0)", 
        "stride": "(1, 1)"
      }, 
      "inputs": [[151, 0, 0], [152, 0, 0]]
    }, 
    {
      "op": "null", 
      "name": "inceptionfactoryc1_batchnorm2_gamma", 
      "attr": {
        "__dtype__": "0", 
        "__init__": "ones", 
        "__lr_mult__": "1.0", 
        "__shape__": "(288,)", 
        "__storage_type__": "0", 
        "__wd_mult__": "1.0"
      }, 
      "inputs": []
    }, 
    {
      "op": "null", 
      "name": "inceptionfactoryc1_batchnorm2_beta", 
      "attr": {
        "__dtype__": "0", 
        "__init__": "zeros", 
        "__lr_mult__": "1.0", 
        "__shape__": "(288,)", 
        "__storage_type__": "0", 
        "__wd_mult__": "1.0"
      }, 
      "inputs": []
    }, 
    {
      "op": "null", 
      "name": "inceptionfactoryc1_batchnorm2_running_mean", 
      "attr": {
        "__dtype__": "0", 
        "__init__": "zeros", 
        "__lr_mult__": "1.0", 
        "__shape__": "(288,)", 
        "__storage_type__": "0", 
        "__wd_mult__": "1.0"
      }, 
      "inputs": []
    }, 
    {
      "op": "null", 
      "name": "inceptionfactoryc1_batchnorm2_running_var", 
      "attr": {
        "__dtype__": "0", 
        "__init__": "ones", 
        "__lr_mult__": "1.0", 
        "__shape__": "(288,)", 
        "__storage_type__": "0", 
        "__wd_mult__": "1.0"
      }, 
      "inputs": []
    }, 
    {
      "op": "BatchNorm", 
      "name": "inceptionfactoryc1_batchnorm2_fwd", 
      "attr": {
        "axis": "1", 
        "cudnn_off": "False", 
        "eps": "2e-05", 
        "fix_gamma": "False", 
        "force_local_stats": "False", 
        "momentum": "0.9", 
        "sync": "False", 
        "use_global_stats": "False"
      }, 
      "inputs": [[153, 0, 0], [154, 0, 0], [155, 0, 0], [156, 0, 1], [157, 0, 1]]
    }, 
    {
      "op": "Activation", 
      "name": "inceptionfactoryc1_relu2_fwd", 
      "attr": {"act_type": "relu"}, 
      "inputs": [[158, 0, 0]]
    }, 
    {
      "op": "Concat", 
      "name": "inceptionfactoryc1_concat0", 
      "attr": {"num_args": "2"}, 
      "inputs": [[150, 0, 0], [159, 0, 0]]
    }, 
    {
      "op": "Flatten", 
      "name": "flatten0_flatten0", 
      "inputs": [[160, 0, 0]]
    }, 
    {
      "op": "null", 
      "name": "dense0_weight", 
      "attr": {
        "__dtype__": "0", 
        "__lr_mult__": "1.0", 
        "__shape__": "(3, 576)", 
        "__storage_type__": "0", 
        "__wd_mult__": "1.0"
      }, 
      "inputs": []
    }, 
    {
      "op": "null", 
      "name": "dense0_bias", 
      "attr": {
        "__dtype__": "0", 
        "__init__": "zeros", 
        "__lr_mult__": "1.0", 
        "__shape__": "(3,)", 
        "__storage_type__": "0", 
        "__wd_mult__": "1.0"
      }, 
      "inputs": []
    }, 
    {
      "op": "FullyConnected", 
      "name": "dense0_fwd", 
      "attr": {
        "flatten": "True", 
        "no_bias": "False", 
        "num_hidden": "3"
      }, 
      "inputs": [[161, 0, 0], [162, 0, 0], [163, 0, 0]]
    }
  ], 
  "arg_nodes": [
    0, 
    1, 
    3, 
    4, 
    5, 
    6, 
    9, 
    11, 
    12, 
    13, 
    14, 
    17, 
    19, 
    20, 
    21, 
    22, 
    25, 
    27, 
    28, 
    29, 
    30, 
    33, 
    35, 
    36, 
    37, 
    38, 
    41, 
    43, 
    44, 
    45, 
    46, 
    50, 
    52, 
    53, 
    54, 
    55, 
    59, 
    61, 
    62, 
    63, 
    64, 
    67, 
    69, 
    70, 
    71, 
    72, 
    75, 
    77, 
    78, 
    79, 
    80, 
    83, 
    85, 
    86, 
    87, 
    88, 
    91, 
    93, 
    94, 
    95, 
    96, 
    100, 
    102, 
    103, 
    104, 
    105, 
    109, 
    111, 
    112, 
    113, 
    114, 
    117, 
    119, 
    120, 
    121, 
    122, 
    126, 
    128, 
    129, 
    130, 
    131, 
    135, 
    137, 
    138, 
    139, 
    140, 
    143, 
    145, 
    146, 
    147, 
    148, 
    152, 
    154, 
    155, 
    156, 
    157, 
    162, 
    163
  ], 
  "node_row_ptr": [
    0, 
    1, 
    2, 
    3, 
    4, 
    5, 
    6, 
    7, 
    10, 
    11, 
    12, 
    13, 
    14, 
    15, 
    16, 
    17, 
    20, 
    21, 
    22, 
    23, 
    24, 
    25, 
    26, 
    27, 
    30, 
    31, 
    32, 
    33, 
    34, 
    35, 
    36, 
    37, 
    40, 
    41, 
    42, 
    43, 
    44, 
    45, 
    46, 
    47, 
    50, 
    51, 
    52, 
    53, 
    54, 
    55, 
    56, 
    57, 
    60, 
    61, 
    62, 
    63, 
    64, 
    65, 
    66, 
    67, 
    68, 
    71, 
    72, 
    73, 
    74, 
    75, 
    76, 
    77, 
    78, 
    79, 
    82, 
    83, 
    84, 
    85, 
    86, 
    87, 
    88, 
    89, 
    92, 
    93, 
    94, 
    95, 
    96, 
    97, 
    98, 
    99, 
    102, 
    103, 
    104, 
    105, 
    106, 
    107, 
    108, 
    109, 
    112, 
    113, 
    114, 
    115, 
    116, 
    117, 
    118, 
    119, 
    122, 
    123, 
    124, 
    125, 
    126, 
    127, 
    128, 
    129, 
    130, 
    133, 
    134, 
    135, 
    136, 
    137, 
    138, 
    139, 
    140, 
    141, 
    144, 
    145, 
    146, 
    147, 
    148, 
    149, 
    150, 
    151, 
    154, 
    155, 
    156, 
    157, 
    158, 
    159, 
    160, 
    161, 
    162, 
    165, 
    166, 
    167, 
    168, 
    169, 
    170, 
    171, 
    172, 
    173, 
    176, 
    177, 
    178, 
    179, 
    180, 
    181, 
    182, 
    183, 
    186, 
    187, 
    188, 
    189, 
    190, 
    191, 
    192, 
    193, 
    194, 
    197, 
    198, 
    199, 
    200, 
    201, 
    202, 
    203
  ], 
  "heads": [[164, 0, 0]], 
  "attrs": {
    "build_version": ["str", "nnvm_1.5.1.1.0 commit ce53dfd2993ac93bb904b9b518829498fda80db4 Author: lichao.huang <lichao.huang@horizon.ai> Date:   Thu Nov 7 14:35:02 2019 +0800"], 
    "mxnet_version": ["int", 10501]
  }
}