{
  "nodes": [
    {
      "op": "null", 
      "name": "data", 
      "inputs": []
    }, 
    {
      "op": "null", 
      "name": "conv0_weight", 
      "attr": {
        "kernel": "(3, 3)", 
        "no_bias": "True", 
        "num_filter": "16", 
        "pad": "(1, 1)", 
        "stride": "(2, 2)"
      }, 
      "inputs": []
    }, 
    {
      "op": "Convolution", 
      "name": "conv0", 
      "attr": {
        "kernel": "(3, 3)", 
        "no_bias": "True", 
        "num_filter": "16", 
        "pad": "(1, 1)", 
        "stride": "(2, 2)"
      }, 
      "inputs": [[0, 0, 0], [1, 0, 0]]
    }, 
    {
      "op": "null", 
      "name": "bn0_gamma", 
      "attr": {
        "__force_mirroring__": "True", 
        "eps": "2e-05", 
        "fix_gamma": "False", 
        "sync": "False", 
        "use_global_stats": "True"
      }, 
      "inputs": []
    }, 
    {
      "op": "null", 
      "name": "bn0_beta", 
      "attr": {
        "__force_mirroring__": "True", 
        "eps": "2e-05", 
        "fix_gamma": "False", 
        "sync": "False", 
        "use_global_stats": "True"
      }, 
      "inputs": []
    }, 
    {
      "op": "null", 
      "name": "bn0_moving_mean", 
      "attr": {
        "__force_mirroring__": "True", 
        "__init__": "[\"zero\", {}]", 
        "eps": "2e-05", 
        "fix_gamma": "False", 
        "sync": "False", 
        "use_global_stats": "True"
      }, 
      "inputs": []
    }, 
    {
      "op": "null", 
      "name": "bn0_moving_var", 
      "attr": {
        "__force_mirroring__": "True", 
        "__init__": "[\"one\", {}]", 
        "eps": "2e-05", 
        "fix_gamma": "False", 
        "sync": "False", 
        "use_global_stats": "True"
      }, 
      "inputs": []
    }, 
    {
      "op": "BatchNorm", 
      "name": "bn0", 
      "attr": {
        "__force_mirroring__": "True", 
        "eps": "2e-05", 
        "fix_gamma": "False", 
        "sync": "False", 
        "use_global_stats": "True"
      }, 
      "inputs": [[2, 0, 0], [3, 0, 0], [4, 0, 0], [5, 0, 1], [6, 0, 1]]
    }, 
    {
      "op": "Activation", 
      "name": "relu0", 
      "attr": {
        "__force_mirroring__": "True", 
        "act_type": "relu"
      }, 
      "inputs": [[7, 0, 0]]
    }, 
    {
      "op": "null", 
      "name": "conv1_weight", 
      "attr": {
        "kernel": "(3, 3)", 
        "no_bias": "True", 
        "num_filter": "16", 
        "pad": "(1, 1)", 
        "stride": "(2, 2)"
      }, 
      "inputs": []
    }, 
    {
      "op": "Convolution", 
      "name": "conv1", 
      "attr": {
        "kernel": "(3, 3)", 
        "no_bias": "True", 
        "num_filter": "16", 
        "pad": "(1, 1)", 
        "stride": "(2, 2)"
      }, 
      "inputs": [[8, 0, 0], [9, 0, 0]]
    }, 
    {
      "op": "null", 
      "name": "bn1_gamma", 
      "attr": {
        "__force_mirroring__": "True", 
        "eps": "2e-05", 
        "fix_gamma": "False", 
        "sync": "False", 
        "use_global_stats": "True"
      }, 
      "inputs": []
    }, 
    {
      "op": "null", 
      "name": "bn1_beta", 
      "attr": {
        "__force_mirroring__": "True", 
        "eps": "2e-05", 
        "fix_gamma": "False", 
        "sync": "False", 
        "use_global_stats": "True"
      }, 
      "inputs": []
    }, 
    {
      "op": "null", 
      "name": "bn1_moving_mean", 
      "attr": {
        "__force_mirroring__": "True", 
        "__init__": "[\"zero\", {}]", 
        "eps": "2e-05", 
        "fix_gamma": "False", 
        "sync": "False", 
        "use_global_stats": "True"
      }, 
      "inputs": []
    }, 
    {
      "op": "null", 
      "name": "bn1_moving_var", 
      "attr": {
        "__force_mirroring__": "True", 
        "__init__": "[\"one\", {}]", 
        "eps": "2e-05", 
        "fix_gamma": "False", 
        "sync": "False", 
        "use_global_stats": "True"
      }, 
      "inputs": []
    }, 
    {
      "op": "BatchNorm", 
      "name": "bn1", 
      "attr": {
        "__force_mirroring__": "True", 
        "eps": "2e-05", 
        "fix_gamma": "False", 
        "sync": "False", 
        "use_global_stats": "True"
      }, 
      "inputs": [[10, 0, 0], [11, 0, 0], [12, 0, 0], [13, 0, 1], [14, 0, 1]]
    }, 
    {
      "op": "Activation", 
      "name": "relu1", 
      "attr": {
        "__force_mirroring__": "True", 
        "act_type": "relu"
      }, 
      "inputs": [[15, 0, 0]]
    }, 
    {
      "op": "null", 
      "name": "stage1_unit1_conv1_weight", 
      "attr": {
        "dilate": "(1, 1)", 
        "kernel": "(3, 3)", 
        "no_bias": "True", 
        "num_filter": "16", 
        "pad": "(1, 1)", 
        "stride": "(1, 1)", 
        "workspace": "512"
      }, 
      "inputs": []
    }, 
    {
      "op": "Convolution", 
      "name": "stage1_unit1_conv1", 
      "attr": {
        "dilate": "(1, 1)", 
        "kernel": "(3, 3)", 
        "no_bias": "True", 
        "num_filter": "16", 
        "pad": "(1, 1)", 
        "stride": "(1, 1)", 
        "workspace": "512"
      }, 
      "inputs": [[16, 0, 0], [17, 0, 0]]
    }, 
    {
      "op": "null", 
      "name": "stage1_unit1_bn1_gamma", 
      "attr": {
        "__force_mirroring__": "True", 
        "eps": "2e-05", 
        "fix_gamma": "False", 
        "sync": "False", 
        "use_global_stats": "True"
      }, 
      "inputs": []
    }, 
    {
      "op": "null", 
      "name": "stage1_unit1_bn1_beta", 
      "attr": {
        "__force_mirroring__": "True", 
        "eps": "2e-05", 
        "fix_gamma": "False", 
        "sync": "False", 
        "use_global_stats": "True"
      }, 
      "inputs": []
    }, 
    {
      "op": "null", 
      "name": "stage1_unit1_bn1_moving_mean", 
      "attr": {
        "__force_mirroring__": "True", 
        "__init__": "[\"zero\", {}]", 
        "eps": "2e-05", 
        "fix_gamma": "False", 
        "sync": "False", 
        "use_global_stats": "True"
      }, 
      "inputs": []
    }, 
    {
      "op": "null", 
      "name": "stage1_unit1_bn1_moving_var", 
      "attr": {
        "__force_mirroring__": "True", 
        "__init__": "[\"one\", {}]", 
        "eps": "2e-05", 
        "fix_gamma": "False", 
        "sync": "False", 
        "use_global_stats": "True"
      }, 
      "inputs": []
    }, 
    {
      "op": "BatchNorm", 
      "name": "stage1_unit1_bn1", 
      "attr": {
        "__force_mirroring__": "True", 
        "eps": "2e-05", 
        "fix_gamma": "False", 
        "sync": "False", 
        "use_global_stats": "True"
      }, 
      "inputs": [[18, 0, 0], [19, 0, 0], [20, 0, 0], [21, 0, 1], [22, 0, 1]]
    }, 
    {
      "op": "Activation", 
      "name": "stage1_unit1_relu1", 
      "attr": {
        "__force_mirroring__": "True", 
        "act_type": "relu"
      }, 
      "inputs": [[23, 0, 0]]
    }, 
    {
      "op": "null", 
      "name": "stage1_unit1_conv2_weight", 
      "attr": {
        "dilate": "(1, 1)", 
        "kernel": "(3, 3)", 
        "no_bias": "True", 
        "num_filter": "16", 
        "pad": "(1, 1)", 
        "stride": "(1, 1)", 
        "workspace": "512"
      }, 
      "inputs": []
    }, 
    {
      "op": "Convolution", 
      "name": "stage1_unit1_conv2", 
      "attr": {
        "dilate": "(1, 1)", 
        "kernel": "(3, 3)", 
        "no_bias": "True", 
        "num_filter": "16", 
        "pad": "(1, 1)", 
        "stride": "(1, 1)", 
        "workspace": "512"
      }, 
      "inputs": [[24, 0, 0], [25, 0, 0]]
    }, 
    {
      "op": "null", 
      "name": "stage1_unit1_bn2_gamma", 
      "attr": {
        "__force_mirroring__": "True", 
        "eps": "2e-05", 
        "fix_gamma": "False", 
        "sync": "False", 
        "use_global_stats": "True"
      }, 
      "inputs": []
    }, 
    {
      "op": "null", 
      "name": "stage1_unit1_bn2_beta", 
      "attr": {
        "__force_mirroring__": "True", 
        "eps": "2e-05", 
        "fix_gamma": "False", 
        "sync": "False", 
        "use_global_stats": "True"
      }, 
      "inputs": []
    }, 
    {
      "op": "null", 
      "name": "stage1_unit1_bn2_moving_mean", 
      "attr": {
        "__force_mirroring__": "True", 
        "__init__": "[\"zero\", {}]", 
        "eps": "2e-05", 
        "fix_gamma": "False", 
        "sync": "False", 
        "use_global_stats": "True"
      }, 
      "inputs": []
    }, 
    {
      "op": "null", 
      "name": "stage1_unit1_bn2_moving_var", 
      "attr": {
        "__force_mirroring__": "True", 
        "__init__": "[\"one\", {}]", 
        "eps": "2e-05", 
        "fix_gamma": "False", 
        "sync": "False", 
        "use_global_stats": "True"
      }, 
      "inputs": []
    }, 
    {
      "op": "BatchNorm", 
      "name": "stage1_unit1_bn2", 
      "attr": {
        "__force_mirroring__": "True", 
        "eps": "2e-05", 
        "fix_gamma": "False", 
        "sync": "False", 
        "use_global_stats": "True"
      }, 
      "inputs": [[26, 0, 0], [27, 0, 0], [28, 0, 0], [29, 0, 1], [30, 0, 1]]
    }, 
    {
      "op": "null", 
      "name": "stage1_unit1_convsc_weight", 
      "attr": {
        "dilate": "(1, 1)", 
        "kernel": "(1, 1)", 
        "no_bias": "True", 
        "num_filter": "16", 
        "pad": "(0, 0)", 
        "stride": "(1, 1)", 
        "workspace": "512"
      }, 
      "inputs": []
    }, 
    {
      "op": "Convolution", 
      "name": "stage1_unit1_convsc", 
      "attr": {
        "dilate": "(1, 1)", 
        "kernel": "(1, 1)", 
        "no_bias": "True", 
        "num_filter": "16", 
        "pad": "(0, 0)", 
        "stride": "(1, 1)", 
        "workspace": "512"
      }, 
      "inputs": [[16, 0, 0], [32, 0, 0]]
    }, 
    {
      "op": "null", 
      "name": "stage1_unit1_bnsc_gamma", 
      "attr": {
        "__force_mirroring__": "True", 
        "eps": "2e-05", 
        "fix_gamma": "False", 
        "sync": "False", 
        "use_global_stats": "True"
      }, 
      "inputs": []
    }, 
    {
      "op": "null", 
      "name": "stage1_unit1_bnsc_beta", 
      "attr": {
        "__force_mirroring__": "True", 
        "eps": "2e-05", 
        "fix_gamma": "False", 
        "sync": "False", 
        "use_global_stats": "True"
      }, 
      "inputs": []
    }, 
    {
      "op": "null", 
      "name": "stage1_unit1_bnsc_moving_mean", 
      "attr": {
        "__force_mirroring__": "True", 
        "__init__": "[\"zero\", {}]", 
        "eps": "2e-05", 
        "fix_gamma": "False", 
        "sync": "False", 
        "use_global_stats": "True"
      }, 
      "inputs": []
    }, 
    {
      "op": "null", 
      "name": "stage1_unit1_bnsc_moving_var", 
      "attr": {
        "__force_mirroring__": "True", 
        "__init__": "[\"one\", {}]", 
        "eps": "2e-05", 
        "fix_gamma": "False", 
        "sync": "False", 
        "use_global_stats": "True"
      }, 
      "inputs": []
    }, 
    {
      "op": "BatchNorm", 
      "name": "stage1_unit1_bnsc", 
      "attr": {
        "__force_mirroring__": "True", 
        "eps": "2e-05", 
        "fix_gamma": "False", 
        "sync": "False", 
        "use_global_stats": "True"
      }, 
      "inputs": [[33, 0, 0], [34, 0, 0], [35, 0, 0], [36, 0, 1], [37, 0, 1]]
    }, 
    {
      "op": "elemwise_add", 
      "name": "_plus0", 
      "inputs": [[31, 0, 0], [38, 0, 0]]
    }, 
    {
      "op": "Activation", 
      "name": "stage1_unit1_relu", 
      "attr": {"act_type": "relu"}, 
      "inputs": [[39, 0, 0]]
    }, 
    {
      "op": "null", 
      "name": "stage1_unit2_conv1_weight", 
      "attr": {
        "dilate": "(1, 1)", 
        "kernel": "(3, 3)", 
        "no_bias": "True", 
        "num_filter": "16", 
        "pad": "(1, 1)", 
        "stride": "(1, 1)", 
        "workspace": "512"
      }, 
      "inputs": []
    }, 
    {
      "op": "Convolution", 
      "name": "stage1_unit2_conv1", 
      "attr": {
        "dilate": "(1, 1)", 
        "kernel": "(3, 3)", 
        "no_bias": "True", 
        "num_filter": "16", 
        "pad": "(1, 1)", 
        "stride": "(1, 1)", 
        "workspace": "512"
      }, 
      "inputs": [[40, 0, 0], [41, 0, 0]]
    }, 
    {
      "op": "null", 
      "name": "stage1_unit2_bn1_gamma", 
      "attr": {
        "__force_mirroring__": "True", 
        "eps": "2e-05", 
        "fix_gamma": "False", 
        "sync": "False", 
        "use_global_stats": "True"
      }, 
      "inputs": []
    }, 
    {
      "op": "null", 
      "name": "stage1_unit2_bn1_beta", 
      "attr": {
        "__force_mirroring__": "True", 
        "eps": "2e-05", 
        "fix_gamma": "False", 
        "sync": "False", 
        "use_global_stats": "True"
      }, 
      "inputs": []
    }, 
    {
      "op": "null", 
      "name": "stage1_unit2_bn1_moving_mean", 
      "attr": {
        "__force_mirroring__": "True", 
        "__init__": "[\"zero\", {}]", 
        "eps": "2e-05", 
        "fix_gamma": "False", 
        "sync": "False", 
        "use_global_stats": "True"
      }, 
      "inputs": []
    }, 
    {
      "op": "null", 
      "name": "stage1_unit2_bn1_moving_var", 
      "attr": {
        "__force_mirroring__": "True", 
        "__init__": "[\"one\", {}]", 
        "eps": "2e-05", 
        "fix_gamma": "False", 
        "sync": "False", 
        "use_global_stats": "True"
      }, 
      "inputs": []
    }, 
    {
      "op": "BatchNorm", 
      "name": "stage1_unit2_bn1", 
      "attr": {
        "__force_mirroring__": "True", 
        "eps": "2e-05", 
        "fix_gamma": "False", 
        "sync": "False", 
        "use_global_stats": "True"
      }, 
      "inputs": [[42, 0, 0], [43, 0, 0], [44, 0, 0], [45, 0, 1], [46, 0, 1]]
    }, 
    {
      "op": "Activation", 
      "name": "stage1_unit2_relu1", 
      "attr": {
        "__force_mirroring__": "True", 
        "act_type": "relu"
      }, 
      "inputs": [[47, 0, 0]]
    }, 
    {
      "op": "null", 
      "name": "stage1_unit2_conv2_weight", 
      "attr": {
        "dilate": "(1, 1)", 
        "kernel": "(3, 3)", 
        "no_bias": "True", 
        "num_filter": "16", 
        "pad": "(1, 1)", 
        "stride": "(1, 1)", 
        "workspace": "512"
      }, 
      "inputs": []
    }, 
    {
      "op": "Convolution", 
      "name": "stage1_unit2_conv2", 
      "attr": {
        "dilate": "(1, 1)", 
        "kernel": "(3, 3)", 
        "no_bias": "True", 
        "num_filter": "16", 
        "pad": "(1, 1)", 
        "stride": "(1, 1)", 
        "workspace": "512"
      }, 
      "inputs": [[48, 0, 0], [49, 0, 0]]
    }, 
    {
      "op": "null", 
      "name": "stage1_unit2_bn2_gamma", 
      "attr": {
        "__force_mirroring__": "True", 
        "eps": "2e-05", 
        "fix_gamma": "False", 
        "sync": "False", 
        "use_global_stats": "True"
      }, 
      "inputs": []
    }, 
    {
      "op": "null", 
      "name": "stage1_unit2_bn2_beta", 
      "attr": {
        "__force_mirroring__": "True", 
        "eps": "2e-05", 
        "fix_gamma": "False", 
        "sync": "False", 
        "use_global_stats": "True"
      }, 
      "inputs": []
    }, 
    {
      "op": "null", 
      "name": "stage1_unit2_bn2_moving_mean", 
      "attr": {
        "__force_mirroring__": "True", 
        "__init__": "[\"zero\", {}]", 
        "eps": "2e-05", 
        "fix_gamma": "False", 
        "sync": "False", 
        "use_global_stats": "True"
      }, 
      "inputs": []
    }, 
    {
      "op": "null", 
      "name": "stage1_unit2_bn2_moving_var", 
      "attr": {
        "__force_mirroring__": "True", 
        "__init__": "[\"one\", {}]", 
        "eps": "2e-05", 
        "fix_gamma": "False", 
        "sync": "False", 
        "use_global_stats": "True"
      }, 
      "inputs": []
    }, 
    {
      "op": "BatchNorm", 
      "name": "stage1_unit2_bn2", 
      "attr": {
        "__force_mirroring__": "True", 
        "eps": "2e-05", 
        "fix_gamma": "False", 
        "sync": "False", 
        "use_global_stats": "True"
      }, 
      "inputs": [[50, 0, 0], [51, 0, 0], [52, 0, 0], [53, 0, 1], [54, 0, 1]]
    }, 
    {
      "op": "elemwise_add", 
      "name": "_plus1", 
      "inputs": [[55, 0, 0], [40, 0, 0]]
    }, 
    {
      "op": "Activation", 
      "name": "stage1_unit2_relu", 
      "attr": {"act_type": "relu"}, 
      "inputs": [[56, 0, 0]]
    }, 
    {
      "op": "null", 
      "name": "stage2_unit1_conv1_weight", 
      "attr": {
        "dilate": "(1, 1)", 
        "kernel": "(3, 3)", 
        "no_bias": "True", 
        "num_filter": "32", 
        "pad": "(1, 1)", 
        "stride": "(2, 2)", 
        "workspace": "512"
      }, 
      "inputs": []
    }, 
    {
      "op": "Convolution", 
      "name": "stage2_unit1_conv1", 
      "attr": {
        "dilate": "(1, 1)", 
        "kernel": "(3, 3)", 
        "no_bias": "True", 
        "num_filter": "32", 
        "pad": "(1, 1)", 
        "stride": "(2, 2)", 
        "workspace": "512"
      }, 
      "inputs": [[57, 0, 0], [58, 0, 0]]
    }, 
    {
      "op": "null", 
      "name": "stage2_unit1_bn1_gamma", 
      "attr": {
        "__force_mirroring__": "True", 
        "eps": "2e-05", 
        "fix_gamma": "False", 
        "sync": "False", 
        "use_global_stats": "True"
      }, 
      "inputs": []
    }, 
    {
      "op": "null", 
      "name": "stage2_unit1_bn1_beta", 
      "attr": {
        "__force_mirroring__": "True", 
        "eps": "2e-05", 
        "fix_gamma": "False", 
        "sync": "False", 
        "use_global_stats": "True"
      }, 
      "inputs": []
    }, 
    {
      "op": "null", 
      "name": "stage2_unit1_bn1_moving_mean", 
      "attr": {
        "__force_mirroring__": "True", 
        "__init__": "[\"zero\", {}]", 
        "eps": "2e-05", 
        "fix_gamma": "False", 
        "sync": "False", 
        "use_global_stats": "True"
      }, 
      "inputs": []
    }, 
    {
      "op": "null", 
      "name": "stage2_unit1_bn1_moving_var", 
      "attr": {
        "__force_mirroring__": "True", 
        "__init__": "[\"one\", {}]", 
        "eps": "2e-05", 
        "fix_gamma": "False", 
        "sync": "False", 
        "use_global_stats": "True"
      }, 
      "inputs": []
    }, 
    {
      "op": "BatchNorm", 
      "name": "stage2_unit1_bn1", 
      "attr": {
        "__force_mirroring__": "True", 
        "eps": "2e-05", 
        "fix_gamma": "False", 
        "sync": "False", 
        "use_global_stats": "True"
      }, 
      "inputs": [[59, 0, 0], [60, 0, 0], [61, 0, 0], [62, 0, 1], [63, 0, 1]]
    }, 
    {
      "op": "Activation", 
      "name": "stage2_unit1_relu1", 
      "attr": {
        "__force_mirroring__": "True", 
        "act_type": "relu"
      }, 
      "inputs": [[64, 0, 0]]
    }, 
    {
      "op": "null", 
      "name": "stage2_unit1_conv2_weight", 
      "attr": {
        "dilate": "(1, 1)", 
        "kernel": "(3, 3)", 
        "no_bias": "True", 
        "num_filter": "32", 
        "pad": "(1, 1)", 
        "stride": "(1, 1)", 
        "workspace": "512"
      }, 
      "inputs": []
    }, 
    {
      "op": "Convolution", 
      "name": "stage2_unit1_conv2", 
      "attr": {
        "dilate": "(1, 1)", 
        "kernel": "(3, 3)", 
        "no_bias": "True", 
        "num_filter": "32", 
        "pad": "(1, 1)", 
        "stride": "(1, 1)", 
        "workspace": "512"
      }, 
      "inputs": [[65, 0, 0], [66, 0, 0]]
    }, 
    {
      "op": "null", 
      "name": "stage2_unit1_bn2_gamma", 
      "attr": {
        "__force_mirroring__": "True", 
        "eps": "2e-05", 
        "fix_gamma": "False", 
        "sync": "False", 
        "use_global_stats": "True"
      }, 
      "inputs": []
    }, 
    {
      "op": "null", 
      "name": "stage2_unit1_bn2_beta", 
      "attr": {
        "__force_mirroring__": "True", 
        "eps": "2e-05", 
        "fix_gamma": "False", 
        "sync": "False", 
        "use_global_stats": "True"
      }, 
      "inputs": []
    }, 
    {
      "op": "null", 
      "name": "stage2_unit1_bn2_moving_mean", 
      "attr": {
        "__force_mirroring__": "True", 
        "__init__": "[\"zero\", {}]", 
        "eps": "2e-05", 
        "fix_gamma": "False", 
        "sync": "False", 
        "use_global_stats": "True"
      }, 
      "inputs": []
    }, 
    {
      "op": "null", 
      "name": "stage2_unit1_bn2_moving_var", 
      "attr": {
        "__force_mirroring__": "True", 
        "__init__": "[\"one\", {}]", 
        "eps": "2e-05", 
        "fix_gamma": "False", 
        "sync": "False", 
        "use_global_stats": "True"
      }, 
      "inputs": []
    }, 
    {
      "op": "BatchNorm", 
      "name": "stage2_unit1_bn2", 
      "attr": {
        "__force_mirroring__": "True", 
        "eps": "2e-05", 
        "fix_gamma": "False", 
        "sync": "False", 
        "use_global_stats": "True"
      }, 
      "inputs": [[67, 0, 0], [68, 0, 0], [69, 0, 0], [70, 0, 1], [71, 0, 1]]
    }, 
    {
      "op": "null", 
      "name": "stage2_unit1_convsc_weight", 
      "attr": {
        "dilate": "(1, 1)", 
        "kernel": "(1, 1)", 
        "no_bias": "True", 
        "num_filter": "32", 
        "pad": "(0, 0)", 
        "stride": "(2, 2)", 
        "workspace": "512"
      }, 
      "inputs": []
    }, 
    {
      "op": "Convolution", 
      "name": "stage2_unit1_convsc", 
      "attr": {
        "dilate": "(1, 1)", 
        "kernel": "(1, 1)", 
        "no_bias": "True", 
        "num_filter": "32", 
        "pad": "(0, 0)", 
        "stride": "(2, 2)", 
        "workspace": "512"
      }, 
      "inputs": [[57, 0, 0], [73, 0, 0]]
    }, 
    {
      "op": "null", 
      "name": "stage2_unit1_bnsc_gamma", 
      "attr": {
        "__force_mirroring__": "True", 
        "eps": "2e-05", 
        "fix_gamma": "False", 
        "sync": "False", 
        "use_global_stats": "True"
      }, 
      "inputs": []
    }, 
    {
      "op": "null", 
      "name": "stage2_unit1_bnsc_beta", 
      "attr": {
        "__force_mirroring__": "True", 
        "eps": "2e-05", 
        "fix_gamma": "False", 
        "sync": "False", 
        "use_global_stats": "True"
      }, 
      "inputs": []
    }, 
    {
      "op": "null", 
      "name": "stage2_unit1_bnsc_moving_mean", 
      "attr": {
        "__force_mirroring__": "True", 
        "__init__": "[\"zero\", {}]", 
        "eps": "2e-05", 
        "fix_gamma": "False", 
        "sync": "False", 
        "use_global_stats": "True"
      }, 
      "inputs": []
    }, 
    {
      "op": "null", 
      "name": "stage2_unit1_bnsc_moving_var", 
      "attr": {
        "__force_mirroring__": "True", 
        "__init__": "[\"one\", {}]", 
        "eps": "2e-05", 
        "fix_gamma": "False", 
        "sync": "False", 
        "use_global_stats": "True"
      }, 
      "inputs": []
    }, 
    {
      "op": "BatchNorm", 
      "name": "stage2_unit1_bnsc", 
      "attr": {
        "__force_mirroring__": "True", 
        "eps": "2e-05", 
        "fix_gamma": "False", 
        "sync": "False", 
        "use_global_stats": "True"
      }, 
      "inputs": [[74, 0, 0], [75, 0, 0], [76, 0, 0], [77, 0, 1], [78, 0, 1]]
    }, 
    {
      "op": "elemwise_add", 
      "name": "_plus2", 
      "inputs": [[72, 0, 0], [79, 0, 0]]
    }, 
    {
      "op": "Activation", 
      "name": "stage2_unit1_relu", 
      "attr": {"act_type": "relu"}, 
      "inputs": [[80, 0, 0]]
    }, 
    {
      "op": "null", 
      "name": "stage2_unit2_conv1_weight", 
      "attr": {
        "dilate": "(1, 1)", 
        "kernel": "(3, 3)", 
        "no_bias": "True", 
        "num_filter": "32", 
        "pad": "(1, 1)", 
        "stride": "(1, 1)", 
        "workspace": "512"
      }, 
      "inputs": []
    }, 
    {
      "op": "Convolution", 
      "name": "stage2_unit2_conv1", 
      "attr": {
        "dilate": "(1, 1)", 
        "kernel": "(3, 3)", 
        "no_bias": "True", 
        "num_filter": "32", 
        "pad": "(1, 1)", 
        "stride": "(1, 1)", 
        "workspace": "512"
      }, 
      "inputs": [[81, 0, 0], [82, 0, 0]]
    }, 
    {
      "op": "null", 
      "name": "stage2_unit2_bn1_gamma", 
      "attr": {
        "__force_mirroring__": "True", 
        "eps": "2e-05", 
        "fix_gamma": "False", 
        "sync": "False", 
        "use_global_stats": "True"
      }, 
      "inputs": []
    }, 
    {
      "op": "null", 
      "name": "stage2_unit2_bn1_beta", 
      "attr": {
        "__force_mirroring__": "True", 
        "eps": "2e-05", 
        "fix_gamma": "False", 
        "sync": "False", 
        "use_global_stats": "True"
      }, 
      "inputs": []
    }, 
    {
      "op": "null", 
      "name": "stage2_unit2_bn1_moving_mean", 
      "attr": {
        "__force_mirroring__": "True", 
        "__init__": "[\"zero\", {}]", 
        "eps": "2e-05", 
        "fix_gamma": "False", 
        "sync": "False", 
        "use_global_stats": "True"
      }, 
      "inputs": []
    }, 
    {
      "op": "null", 
      "name": "stage2_unit2_bn1_moving_var", 
      "attr": {
        "__force_mirroring__": "True", 
        "__init__": "[\"one\", {}]", 
        "eps": "2e-05", 
        "fix_gamma": "False", 
        "sync": "False", 
        "use_global_stats": "True"
      }, 
      "inputs": []
    }, 
    {
      "op": "BatchNorm", 
      "name": "stage2_unit2_bn1", 
      "attr": {
        "__force_mirroring__": "True", 
        "eps": "2e-05", 
        "fix_gamma": "False", 
        "sync": "False", 
        "use_global_stats": "True"
      }, 
      "inputs": [[83, 0, 0], [84, 0, 0], [85, 0, 0], [86, 0, 1], [87, 0, 1]]
    }, 
    {
      "op": "Activation", 
      "name": "stage2_unit2_relu1", 
      "attr": {
        "__force_mirroring__": "True", 
        "act_type": "relu"
      }, 
      "inputs": [[88, 0, 0]]
    }, 
    {
      "op": "null", 
      "name": "stage2_unit2_conv2_weight", 
      "attr": {
        "dilate": "(1, 1)", 
        "kernel": "(3, 3)", 
        "no_bias": "True", 
        "num_filter": "32", 
        "pad": "(1, 1)", 
        "stride": "(1, 1)", 
        "workspace": "512"
      }, 
      "inputs": []
    }, 
    {
      "op": "Convolution", 
      "name": "stage2_unit2_conv2", 
      "attr": {
        "dilate": "(1, 1)", 
        "kernel": "(3, 3)", 
        "no_bias": "True", 
        "num_filter": "32", 
        "pad": "(1, 1)", 
        "stride": "(1, 1)", 
        "workspace": "512"
      }, 
      "inputs": [[89, 0, 0], [90, 0, 0]]
    }, 
    {
      "op": "null", 
      "name": "stage2_unit2_bn2_gamma", 
      "attr": {
        "__force_mirroring__": "True", 
        "eps": "2e-05", 
        "fix_gamma": "False", 
        "sync": "False", 
        "use_global_stats": "True"
      }, 
      "inputs": []
    }, 
    {
      "op": "null", 
      "name": "stage2_unit2_bn2_beta", 
      "attr": {
        "__force_mirroring__": "True", 
        "eps": "2e-05", 
        "fix_gamma": "False", 
        "sync": "False", 
        "use_global_stats": "True"
      }, 
      "inputs": []
    }, 
    {
      "op": "null", 
      "name": "stage2_unit2_bn2_moving_mean", 
      "attr": {
        "__force_mirroring__": "True", 
        "__init__": "[\"zero\", {}]", 
        "eps": "2e-05", 
        "fix_gamma": "False", 
        "sync": "False", 
        "use_global_stats": "True"
      }, 
      "inputs": []
    }, 
    {
      "op": "null", 
      "name": "stage2_unit2_bn2_moving_var", 
      "attr": {
        "__force_mirroring__": "True", 
        "__init__": "[\"one\", {}]", 
        "eps": "2e-05", 
        "fix_gamma": "False", 
        "sync": "False", 
        "use_global_stats": "True"
      }, 
      "inputs": []
    }, 
    {
      "op": "BatchNorm", 
      "name": "stage2_unit2_bn2", 
      "attr": {
        "__force_mirroring__": "True", 
        "eps": "2e-05", 
        "fix_gamma": "False", 
        "sync": "False", 
        "use_global_stats": "True"
      }, 
      "inputs": [[91, 0, 0], [92, 0, 0], [93, 0, 0], [94, 0, 1], [95, 0, 1]]
    }, 
    {
      "op": "elemwise_add", 
      "name": "_plus3", 
      "inputs": [[96, 0, 0], [81, 0, 0]]
    }, 
    {
      "op": "Activation", 
      "name": "stage2_unit2_relu", 
      "attr": {"act_type": "relu"}, 
      "inputs": [[97, 0, 0]]
    }, 
    {
      "op": "null", 
      "name": "stage3_unit1_conv1_weight", 
      "attr": {
        "dilate": "(1, 1)", 
        "kernel": "(3, 3)", 
        "no_bias": "True", 
        "num_filter": "64", 
        "pad": "(1, 1)", 
        "stride": "(2, 2)", 
        "workspace": "512"
      }, 
      "inputs": []
    }, 
    {
      "op": "Convolution", 
      "name": "stage3_unit1_conv1", 
      "attr": {
        "dilate": "(1, 1)", 
        "kernel": "(3, 3)", 
        "no_bias": "True", 
        "num_filter": "64", 
        "pad": "(1, 1)", 
        "stride": "(2, 2)", 
        "workspace": "512"
      }, 
      "inputs": [[98, 0, 0], [99, 0, 0]]
    }, 
    {
      "op": "null", 
      "name": "stage3_unit1_bn1_gamma", 
      "attr": {
        "__force_mirroring__": "True", 
        "eps": "2e-05", 
        "fix_gamma": "False", 
        "sync": "False", 
        "use_global_stats": "True"
      }, 
      "inputs": []
    }, 
    {
      "op": "null", 
      "name": "stage3_unit1_bn1_beta", 
      "attr": {
        "__force_mirroring__": "True", 
        "eps": "2e-05", 
        "fix_gamma": "False", 
        "sync": "False", 
        "use_global_stats": "True"
      }, 
      "inputs": []
    }, 
    {
      "op": "null", 
      "name": "stage3_unit1_bn1_moving_mean", 
      "attr": {
        "__force_mirroring__": "True", 
        "__init__": "[\"zero\", {}]", 
        "eps": "2e-05", 
        "fix_gamma": "False", 
        "sync": "False", 
        "use_global_stats": "True"
      }, 
      "inputs": []
    }, 
    {
      "op": "null", 
      "name": "stage3_unit1_bn1_moving_var", 
      "attr": {
        "__force_mirroring__": "True", 
        "__init__": "[\"one\", {}]", 
        "eps": "2e-05", 
        "fix_gamma": "False", 
        "sync": "False", 
        "use_global_stats": "True"
      }, 
      "inputs": []
    }, 
    {
      "op": "BatchNorm", 
      "name": "stage3_unit1_bn1", 
      "attr": {
        "__force_mirroring__": "True", 
        "eps": "2e-05", 
        "fix_gamma": "False", 
        "sync": "False", 
        "use_global_stats": "True"
      }, 
      "inputs": [[100, 0, 0], [101, 0, 0], [102, 0, 0], [103, 0, 1], [104, 0, 1]]
    }, 
    {
      "op": "Activation", 
      "name": "stage3_unit1_relu1", 
      "attr": {
        "__force_mirroring__": "True", 
        "act_type": "relu"
      }, 
      "inputs": [[105, 0, 0]]
    }, 
    {
      "op": "null", 
      "name": "stage3_unit1_conv2_weight", 
      "attr": {
        "dilate": "(1, 1)", 
        "kernel": "(3, 3)", 
        "no_bias": "True", 
        "num_filter": "64", 
        "pad": "(1, 1)", 
        "stride": "(1, 1)", 
        "workspace": "512"
      }, 
      "inputs": []
    }, 
    {
      "op": "Convolution", 
      "name": "stage3_unit1_conv2", 
      "attr": {
        "dilate": "(1, 1)", 
        "kernel": "(3, 3)", 
        "no_bias": "True", 
        "num_filter": "64", 
        "pad": "(1, 1)", 
        "stride": "(1, 1)", 
        "workspace": "512"
      }, 
      "inputs": [[106, 0, 0], [107, 0, 0]]
    }, 
    {
      "op": "null", 
      "name": "stage3_unit1_bn2_gamma", 
      "attr": {
        "__force_mirroring__": "True", 
        "eps": "2e-05", 
        "fix_gamma": "False", 
        "sync": "False", 
        "use_global_stats": "True"
      }, 
      "inputs": []
    }, 
    {
      "op": "null", 
      "name": "stage3_unit1_bn2_beta", 
      "attr": {
        "__force_mirroring__": "True", 
        "eps": "2e-05", 
        "fix_gamma": "False", 
        "sync": "False", 
        "use_global_stats": "True"
      }, 
      "inputs": []
    }, 
    {
      "op": "null", 
      "name": "stage3_unit1_bn2_moving_mean", 
      "attr": {
        "__force_mirroring__": "True", 
        "__init__": "[\"zero\", {}]", 
        "eps": "2e-05", 
        "fix_gamma": "False", 
        "sync": "False", 
        "use_global_stats": "True"
      }, 
      "inputs": []
    }, 
    {
      "op": "null", 
      "name": "stage3_unit1_bn2_moving_var", 
      "attr": {
        "__force_mirroring__": "True", 
        "__init__": "[\"one\", {}]", 
        "eps": "2e-05", 
        "fix_gamma": "False", 
        "sync": "False", 
        "use_global_stats": "True"
      }, 
      "inputs": []
    }, 
    {
      "op": "BatchNorm", 
      "name": "stage3_unit1_bn2", 
      "attr": {
        "__force_mirroring__": "True", 
        "eps": "2e-05", 
        "fix_gamma": "False", 
        "sync": "False", 
        "use_global_stats": "True"
      }, 
      "inputs": [[108, 0, 0], [109, 0, 0], [110, 0, 0], [111, 0, 1], [112, 0, 1]]
    }, 
    {
      "op": "null", 
      "name": "stage3_unit1_convsc_weight", 
      "attr": {
        "dilate": "(1, 1)", 
        "kernel": "(1, 1)", 
        "no_bias": "True", 
        "num_filter": "64", 
        "pad": "(0, 0)", 
        "stride": "(2, 2)", 
        "workspace": "512"
      }, 
      "inputs": []
    }, 
    {
      "op": "Convolution", 
      "name": "stage3_unit1_convsc", 
      "attr": {
        "dilate": "(1, 1)", 
        "kernel": "(1, 1)", 
        "no_bias": "True", 
        "num_filter": "64", 
        "pad": "(0, 0)", 
        "stride": "(2, 2)", 
        "workspace": "512"
      }, 
      "inputs": [[98, 0, 0], [114, 0, 0]]
    }, 
    {
      "op": "null", 
      "name": "stage3_unit1_bnsc_gamma", 
      "attr": {
        "__force_mirroring__": "True", 
        "eps": "2e-05", 
        "fix_gamma": "False", 
        "sync": "False", 
        "use_global_stats": "True"
      }, 
      "inputs": []
    }, 
    {
      "op": "null", 
      "name": "stage3_unit1_bnsc_beta", 
      "attr": {
        "__force_mirroring__": "True", 
        "eps": "2e-05", 
        "fix_gamma": "False", 
        "sync": "False", 
        "use_global_stats": "True"
      }, 
      "inputs": []
    }, 
    {
      "op": "null", 
      "name": "stage3_unit1_bnsc_moving_mean", 
      "attr": {
        "__force_mirroring__": "True", 
        "__init__": "[\"zero\", {}]", 
        "eps": "2e-05", 
        "fix_gamma": "False", 
        "sync": "False", 
        "use_global_stats": "True"
      }, 
      "inputs": []
    }, 
    {
      "op": "null", 
      "name": "stage3_unit1_bnsc_moving_var", 
      "attr": {
        "__force_mirroring__": "True", 
        "__init__": "[\"one\", {}]", 
        "eps": "2e-05", 
        "fix_gamma": "False", 
        "sync": "False", 
        "use_global_stats": "True"
      }, 
      "inputs": []
    }, 
    {
      "op": "BatchNorm", 
      "name": "stage3_unit1_bnsc", 
      "attr": {
        "__force_mirroring__": "True", 
        "eps": "2e-05", 
        "fix_gamma": "False", 
        "sync": "False", 
        "use_global_stats": "True"
      }, 
      "inputs": [[115, 0, 0], [116, 0, 0], [117, 0, 0], [118, 0, 1], [119, 0, 1]]
    }, 
    {
      "op": "elemwise_add", 
      "name": "_plus4", 
      "inputs": [[113, 0, 0], [120, 0, 0]]
    }, 
    {
      "op": "Activation", 
      "name": "stage3_unit1_relu", 
      "attr": {"act_type": "relu"}, 
      "inputs": [[121, 0, 0]]
    }, 
    {
      "op": "null", 
      "name": "stage3_unit2_conv1_weight", 
      "attr": {
        "dilate": "(1, 1)", 
        "kernel": "(3, 3)", 
        "no_bias": "True", 
        "num_filter": "64", 
        "pad": "(1, 1)", 
        "stride": "(1, 1)", 
        "workspace": "512"
      }, 
      "inputs": []
    }, 
    {
      "op": "Convolution", 
      "name": "stage3_unit2_conv1", 
      "attr": {
        "dilate": "(1, 1)", 
        "kernel": "(3, 3)", 
        "no_bias": "True", 
        "num_filter": "64", 
        "pad": "(1, 1)", 
        "stride": "(1, 1)", 
        "workspace": "512"
      }, 
      "inputs": [[122, 0, 0], [123, 0, 0]]
    }, 
    {
      "op": "null", 
      "name": "stage3_unit2_bn1_gamma", 
      "attr": {
        "__force_mirroring__": "True", 
        "eps": "2e-05", 
        "fix_gamma": "False", 
        "sync": "False", 
        "use_global_stats": "True"
      }, 
      "inputs": []
    }, 
    {
      "op": "null", 
      "name": "stage3_unit2_bn1_beta", 
      "attr": {
        "__force_mirroring__": "True", 
        "eps": "2e-05", 
        "fix_gamma": "False", 
        "sync": "False", 
        "use_global_stats": "True"
      }, 
      "inputs": []
    }, 
    {
      "op": "null", 
      "name": "stage3_unit2_bn1_moving_mean", 
      "attr": {
        "__force_mirroring__": "True", 
        "__init__": "[\"zero\", {}]", 
        "eps": "2e-05", 
        "fix_gamma": "False", 
        "sync": "False", 
        "use_global_stats": "True"
      }, 
      "inputs": []
    }, 
    {
      "op": "null", 
      "name": "stage3_unit2_bn1_moving_var", 
      "attr": {
        "__force_mirroring__": "True", 
        "__init__": "[\"one\", {}]", 
        "eps": "2e-05", 
        "fix_gamma": "False", 
        "sync": "False", 
        "use_global_stats": "True"
      }, 
      "inputs": []
    }, 
    {
      "op": "BatchNorm", 
      "name": "stage3_unit2_bn1", 
      "attr": {
        "__force_mirroring__": "True", 
        "eps": "2e-05", 
        "fix_gamma": "False", 
        "sync": "False", 
        "use_global_stats": "True"
      }, 
      "inputs": [[124, 0, 0], [125, 0, 0], [126, 0, 0], [127, 0, 1], [128, 0, 1]]
    }, 
    {
      "op": "Activation", 
      "name": "stage3_unit2_relu1", 
      "attr": {
        "__force_mirroring__": "True", 
        "act_type": "relu"
      }, 
      "inputs": [[129, 0, 0]]
    }, 
    {
      "op": "null", 
      "name": "stage3_unit2_conv2_weight", 
      "attr": {
        "dilate": "(1, 1)", 
        "kernel": "(3, 3)", 
        "no_bias": "True", 
        "num_filter": "64", 
        "pad": "(1, 1)", 
        "stride": "(1, 1)", 
        "workspace": "512"
      }, 
      "inputs": []
    }, 
    {
      "op": "Convolution", 
      "name": "stage3_unit2_conv2", 
      "attr": {
        "dilate": "(1, 1)", 
        "kernel": "(3, 3)", 
        "no_bias": "True", 
        "num_filter": "64", 
        "pad": "(1, 1)", 
        "stride": "(1, 1)", 
        "workspace": "512"
      }, 
      "inputs": [[130, 0, 0], [131, 0, 0]]
    }, 
    {
      "op": "null", 
      "name": "stage3_unit2_bn2_gamma", 
      "attr": {
        "__force_mirroring__": "True", 
        "eps": "2e-05", 
        "fix_gamma": "False", 
        "sync": "False", 
        "use_global_stats": "True"
      }, 
      "inputs": []
    }, 
    {
      "op": "null", 
      "name": "stage3_unit2_bn2_beta", 
      "attr": {
        "__force_mirroring__": "True", 
        "eps": "2e-05", 
        "fix_gamma": "False", 
        "sync": "False", 
        "use_global_stats": "True"
      }, 
      "inputs": []
    }, 
    {
      "op": "null", 
      "name": "stage3_unit2_bn2_moving_mean", 
      "attr": {
        "__force_mirroring__": "True", 
        "__init__": "[\"zero\", {}]", 
        "eps": "2e-05", 
        "fix_gamma": "False", 
        "sync": "False", 
        "use_global_stats": "True"
      }, 
      "inputs": []
    }, 
    {
      "op": "null", 
      "name": "stage3_unit2_bn2_moving_var", 
      "attr": {
        "__force_mirroring__": "True", 
        "__init__": "[\"one\", {}]", 
        "eps": "2e-05", 
        "fix_gamma": "False", 
        "sync": "False", 
        "use_global_stats": "True"
      }, 
      "inputs": []
    }, 
    {
      "op": "BatchNorm", 
      "name": "stage3_unit2_bn2", 
      "attr": {
        "__force_mirroring__": "True", 
        "eps": "2e-05", 
        "fix_gamma": "False", 
        "sync": "False", 
        "use_global_stats": "True"
      }, 
      "inputs": [[132, 0, 0], [133, 0, 0], [134, 0, 0], [135, 0, 1], [136, 0, 1]]
    }, 
    {
      "op": "elemwise_add", 
      "name": "_plus5", 
      "inputs": [[137, 0, 0], [122, 0, 0]]
    }, 
    {
      "op": "Activation", 
      "name": "stage3_unit2_relu", 
      "attr": {"act_type": "relu"}, 
      "inputs": [[138, 0, 0]]
    }, 
    {
      "op": "null", 
      "name": "stage4_unit1_conv1_weight", 
      "attr": {
        "dilate": "(1, 1)", 
        "kernel": "(3, 3)", 
        "no_bias": "True", 
        "num_filter": "128", 
        "pad": "(1, 1)", 
        "stride": "(2, 2)", 
        "workspace": "512"
      }, 
      "inputs": []
    }, 
    {
      "op": "Convolution", 
      "name": "stage4_unit1_conv1", 
      "attr": {
        "dilate": "(1, 1)", 
        "kernel": "(3, 3)", 
        "no_bias": "True", 
        "num_filter": "128", 
        "pad": "(1, 1)", 
        "stride": "(2, 2)", 
        "workspace": "512"
      }, 
      "inputs": [[139, 0, 0], [140, 0, 0]]
    }, 
    {
      "op": "null", 
      "name": "stage4_unit1_bn1_gamma", 
      "attr": {
        "__force_mirroring__": "True", 
        "eps": "2e-05", 
        "fix_gamma": "False", 
        "sync": "False", 
        "use_global_stats": "True"
      }, 
      "inputs": []
    }, 
    {
      "op": "null", 
      "name": "stage4_unit1_bn1_beta", 
      "attr": {
        "__force_mirroring__": "True", 
        "eps": "2e-05", 
        "fix_gamma": "False", 
        "sync": "False", 
        "use_global_stats": "True"
      }, 
      "inputs": []
    }, 
    {
      "op": "null", 
      "name": "stage4_unit1_bn1_moving_mean", 
      "attr": {
        "__force_mirroring__": "True", 
        "__init__": "[\"zero\", {}]", 
        "eps": "2e-05", 
        "fix_gamma": "False", 
        "sync": "False", 
        "use_global_stats": "True"
      }, 
      "inputs": []
    }, 
    {
      "op": "null", 
      "name": "stage4_unit1_bn1_moving_var", 
      "attr": {
        "__force_mirroring__": "True", 
        "__init__": "[\"one\", {}]", 
        "eps": "2e-05", 
        "fix_gamma": "False", 
        "sync": "False", 
        "use_global_stats": "True"
      }, 
      "inputs": []
    }, 
    {
      "op": "BatchNorm", 
      "name": "stage4_unit1_bn1", 
      "attr": {
        "__force_mirroring__": "True", 
        "eps": "2e-05", 
        "fix_gamma": "False", 
        "sync": "False", 
        "use_global_stats": "True"
      }, 
      "inputs": [[141, 0, 0], [142, 0, 0], [143, 0, 0], [144, 0, 1], [145, 0, 1]]
    }, 
    {
      "op": "Activation", 
      "name": "stage4_unit1_relu1", 
      "attr": {
        "__force_mirroring__": "True", 
        "act_type": "relu"
      }, 
      "inputs": [[146, 0, 0]]
    }, 
    {
      "op": "null", 
      "name": "stage4_unit1_conv2_weight", 
      "attr": {
        "dilate": "(1, 1)", 
        "kernel": "(3, 3)", 
        "no_bias": "True", 
        "num_filter": "128", 
        "pad": "(1, 1)", 
        "stride": "(1, 1)", 
        "workspace": "512"
      }, 
      "inputs": []
    }, 
    {
      "op": "Convolution", 
      "name": "stage4_unit1_conv2", 
      "attr": {
        "dilate": "(1, 1)", 
        "kernel": "(3, 3)", 
        "no_bias": "True", 
        "num_filter": "128", 
        "pad": "(1, 1)", 
        "stride": "(1, 1)", 
        "workspace": "512"
      }, 
      "inputs": [[147, 0, 0], [148, 0, 0]]
    }, 
    {
      "op": "null", 
      "name": "stage4_unit1_bn2_gamma", 
      "attr": {
        "__force_mirroring__": "True", 
        "eps": "2e-05", 
        "fix_gamma": "False", 
        "sync": "False", 
        "use_global_stats": "True"
      }, 
      "inputs": []
    }, 
    {
      "op": "null", 
      "name": "stage4_unit1_bn2_beta", 
      "attr": {
        "__force_mirroring__": "True", 
        "eps": "2e-05", 
        "fix_gamma": "False", 
        "sync": "False", 
        "use_global_stats": "True"
      }, 
      "inputs": []
    }, 
    {
      "op": "null", 
      "name": "stage4_unit1_bn2_moving_mean", 
      "attr": {
        "__force_mirroring__": "True", 
        "__init__": "[\"zero\", {}]", 
        "eps": "2e-05", 
        "fix_gamma": "False", 
        "sync": "False", 
        "use_global_stats": "True"
      }, 
      "inputs": []
    }, 
    {
      "op": "null", 
      "name": "stage4_unit1_bn2_moving_var", 
      "attr": {
        "__force_mirroring__": "True", 
        "__init__": "[\"one\", {}]", 
        "eps": "2e-05", 
        "fix_gamma": "False", 
        "sync": "False", 
        "use_global_stats": "True"
      }, 
      "inputs": []
    }, 
    {
      "op": "BatchNorm", 
      "name": "stage4_unit1_bn2", 
      "attr": {
        "__force_mirroring__": "True", 
        "eps": "2e-05", 
        "fix_gamma": "False", 
        "sync": "False", 
        "use_global_stats": "True"
      }, 
      "inputs": [[149, 0, 0], [150, 0, 0], [151, 0, 0], [152, 0, 1], [153, 0, 1]]
    }, 
    {
      "op": "null", 
      "name": "stage4_unit1_convsc_weight", 
      "attr": {
        "dilate": "(1, 1)", 
        "kernel": "(1, 1)", 
        "no_bias": "True", 
        "num_filter": "128", 
        "pad": "(0, 0)", 
        "stride": "(2, 2)", 
        "workspace": "512"
      }, 
      "inputs": []
    }, 
    {
      "op": "Convolution", 
      "name": "stage4_unit1_convsc", 
      "attr": {
        "dilate": "(1, 1)", 
        "kernel": "(1, 1)", 
        "no_bias": "True", 
        "num_filter": "128", 
        "pad": "(0, 0)", 
        "stride": "(2, 2)", 
        "workspace": "512"
      }, 
      "inputs": [[139, 0, 0], [155, 0, 0]]
    }, 
    {
      "op": "null", 
      "name": "stage4_unit1_bnsc_gamma", 
      "attr": {
        "__force_mirroring__": "True", 
        "eps": "2e-05", 
        "fix_gamma": "False", 
        "sync": "False", 
        "use_global_stats": "True"
      }, 
      "inputs": []
    }, 
    {
      "op": "null", 
      "name": "stage4_unit1_bnsc_beta", 
      "attr": {
        "__force_mirroring__": "True", 
        "eps": "2e-05", 
        "fix_gamma": "False", 
        "sync": "False", 
        "use_global_stats": "True"
      }, 
      "inputs": []
    }, 
    {
      "op": "null", 
      "name": "stage4_unit1_bnsc_moving_mean", 
      "attr": {
        "__force_mirroring__": "True", 
        "__init__": "[\"zero\", {}]", 
        "eps": "2e-05", 
        "fix_gamma": "False", 
        "sync": "False", 
        "use_global_stats": "True"
      }, 
      "inputs": []
    }, 
    {
      "op": "null", 
      "name": "stage4_unit1_bnsc_moving_var", 
      "attr": {
        "__force_mirroring__": "True", 
        "__init__": "[\"one\", {}]", 
        "eps": "2e-05", 
        "fix_gamma": "False", 
        "sync": "False", 
        "use_global_stats": "True"
      }, 
      "inputs": []
    }, 
    {
      "op": "BatchNorm", 
      "name": "stage4_unit1_bnsc", 
      "attr": {
        "__force_mirroring__": "True", 
        "eps": "2e-05", 
        "fix_gamma": "False", 
        "sync": "False", 
        "use_global_stats": "True"
      }, 
      "inputs": [[156, 0, 0], [157, 0, 0], [158, 0, 0], [159, 0, 1], [160, 0, 1]]
    }, 
    {
      "op": "elemwise_add", 
      "name": "_plus6", 
      "inputs": [[154, 0, 0], [161, 0, 0]]
    }, 
    {
      "op": "Activation", 
      "name": "stage4_unit1_relu", 
      "attr": {"act_type": "relu"}, 
      "inputs": [[162, 0, 0]]
    }, 
    {
      "op": "null", 
      "name": "stage4_unit2_conv1_weight", 
      "attr": {
        "dilate": "(1, 1)", 
        "kernel": "(3, 3)", 
        "no_bias": "True", 
        "num_filter": "128", 
        "pad": "(1, 1)", 
        "stride": "(1, 1)", 
        "workspace": "512"
      }, 
      "inputs": []
    }, 
    {
      "op": "Convolution", 
      "name": "stage4_unit2_conv1", 
      "attr": {
        "dilate": "(1, 1)", 
        "kernel": "(3, 3)", 
        "no_bias": "True", 
        "num_filter": "128", 
        "pad": "(1, 1)", 
        "stride": "(1, 1)", 
        "workspace": "512"
      }, 
      "inputs": [[163, 0, 0], [164, 0, 0]]
    }, 
    {
      "op": "null", 
      "name": "stage4_unit2_bn1_gamma", 
      "attr": {
        "__force_mirroring__": "True", 
        "eps": "2e-05", 
        "fix_gamma": "False", 
        "sync": "False", 
        "use_global_stats": "True"
      }, 
      "inputs": []
    }, 
    {
      "op": "null", 
      "name": "stage4_unit2_bn1_beta", 
      "attr": {
        "__force_mirroring__": "True", 
        "eps": "2e-05", 
        "fix_gamma": "False", 
        "sync": "False", 
        "use_global_stats": "True"
      }, 
      "inputs": []
    }, 
    {
      "op": "null", 
      "name": "stage4_unit2_bn1_moving_mean", 
      "attr": {
        "__force_mirroring__": "True", 
        "__init__": "[\"zero\", {}]", 
        "eps": "2e-05", 
        "fix_gamma": "False", 
        "sync": "False", 
        "use_global_stats": "True"
      }, 
      "inputs": []
    }, 
    {
      "op": "null", 
      "name": "stage4_unit2_bn1_moving_var", 
      "attr": {
        "__force_mirroring__": "True", 
        "__init__": "[\"one\", {}]", 
        "eps": "2e-05", 
        "fix_gamma": "False", 
        "sync": "False", 
        "use_global_stats": "True"
      }, 
      "inputs": []
    }, 
    {
      "op": "BatchNorm", 
      "name": "stage4_unit2_bn1", 
      "attr": {
        "__force_mirroring__": "True", 
        "eps": "2e-05", 
        "fix_gamma": "False", 
        "sync": "False", 
        "use_global_stats": "True"
      }, 
      "inputs": [[165, 0, 0], [166, 0, 0], [167, 0, 0], [168, 0, 1], [169, 0, 1]]
    }, 
    {
      "op": "Activation", 
      "name": "stage4_unit2_relu1", 
      "attr": {
        "__force_mirroring__": "True", 
        "act_type": "relu"
      }, 
      "inputs": [[170, 0, 0]]
    }, 
    {
      "op": "null", 
      "name": "stage4_unit2_conv2_weight", 
      "attr": {
        "dilate": "(1, 1)", 
        "kernel": "(3, 3)", 
        "no_bias": "True", 
        "num_filter": "128", 
        "pad": "(1, 1)", 
        "stride": "(1, 1)", 
        "workspace": "512"
      }, 
      "inputs": []
    }, 
    {
      "op": "Convolution", 
      "name": "stage4_unit2_conv2", 
      "attr": {
        "dilate": "(1, 1)", 
        "kernel": "(3, 3)", 
        "no_bias": "True", 
        "num_filter": "128", 
        "pad": "(1, 1)", 
        "stride": "(1, 1)", 
        "workspace": "512"
      }, 
      "inputs": [[171, 0, 0], [172, 0, 0]]
    }, 
    {
      "op": "null", 
      "name": "stage4_unit2_bn2_gamma", 
      "attr": {
        "__force_mirroring__": "True", 
        "eps": "2e-05", 
        "fix_gamma": "False", 
        "sync": "False", 
        "use_global_stats": "True"
      }, 
      "inputs": []
    }, 
    {
      "op": "null", 
      "name": "stage4_unit2_bn2_beta", 
      "attr": {
        "__force_mirroring__": "True", 
        "eps": "2e-05", 
        "fix_gamma": "False", 
        "sync": "False", 
        "use_global_stats": "True"
      }, 
      "inputs": []
    }, 
    {
      "op": "null", 
      "name": "stage4_unit2_bn2_moving_mean", 
      "attr": {
        "__force_mirroring__": "True", 
        "__init__": "[\"zero\", {}]", 
        "eps": "2e-05", 
        "fix_gamma": "False", 
        "sync": "False", 
        "use_global_stats": "True"
      }, 
      "inputs": []
    }, 
    {
      "op": "null", 
      "name": "stage4_unit2_bn2_moving_var", 
      "attr": {
        "__force_mirroring__": "True", 
        "__init__": "[\"one\", {}]", 
        "eps": "2e-05", 
        "fix_gamma": "False", 
        "sync": "False", 
        "use_global_stats": "True"
      }, 
      "inputs": []
    }, 
    {
      "op": "BatchNorm", 
      "name": "stage4_unit2_bn2", 
      "attr": {
        "__force_mirroring__": "True", 
        "eps": "2e-05", 
        "fix_gamma": "False", 
        "sync": "False", 
        "use_global_stats": "True"
      }, 
      "inputs": [[173, 0, 0], [174, 0, 0], [175, 0, 0], [176, 0, 1], [177, 0, 1]]
    }, 
    {
      "op": "elemwise_add", 
      "name": "_plus7", 
      "inputs": [[178, 0, 0], [163, 0, 0]]
    }, 
    {
      "op": "Activation", 
      "name": "stage4_unit2_relu", 
      "attr": {"act_type": "relu"}, 
      "inputs": [[179, 0, 0]]
    }, 
    {
      "op": "null", 
      "name": "fpn_p5_1x1_weight", 
      "attr": {
        "kernel": "(1, 1)", 
        "num_filter": "32", 
        "pad": "(0, 0)", 
        "stride": "(1, 1)"
      }, 
      "inputs": []
    }, 
    {
      "op": "null", 
      "name": "fpn_p5_1x1_bias", 
      "attr": {
        "kernel": "(1, 1)", 
        "num_filter": "32", 
        "pad": "(0, 0)", 
        "stride": "(1, 1)"
      }, 
      "inputs": []
    }, 
    {
      "op": "Convolution", 
      "name": "fpn_p5_1x1", 
      "attr": {
        "kernel": "(1, 1)", 
        "num_filter": "32", 
        "pad": "(0, 0)", 
        "stride": "(1, 1)"
      }, 
      "inputs": [[180, 0, 0], [181, 0, 0], [182, 0, 0]]
    }, 
    {
      "op": "null", 
      "name": "fpn_p5_upsample_weight", 
      "attr": {
        "kernel": "(2, 2)", 
        "no_bias": "0", 
        "num_filter": "32", 
        "pad": "(0, 0)", 
        "stride": "(2, 2)"
      }, 
      "inputs": []
    }, 
    {
      "op": "null", 
      "name": "fpn_p5_upsample_bias", 
      "attr": {
        "kernel": "(2, 2)", 
        "no_bias": "0", 
        "num_filter": "32", 
        "pad": "(0, 0)", 
        "stride": "(2, 2)"
      }, 
      "inputs": []
    }, 
    {
      "op": "Deconvolution", 
      "name": "fpn_p5_upsample", 
      "attr": {
        "kernel": "(2, 2)", 
        "no_bias": "0", 
        "num_filter": "32", 
        "pad": "(0, 0)", 
        "stride": "(2, 2)"
      }, 
      "inputs": [[183, 0, 0], [184, 0, 0], [185, 0, 0]]
    }, 
    {
      "op": "null", 
      "name": "fpn_p4_1x1_weight", 
      "attr": {
        "kernel": "(1, 1)", 
        "num_filter": "32", 
        "pad": "(0, 0)", 
        "stride": "(1, 1)"
      }, 
      "inputs": []
    }, 
    {
      "op": "null", 
      "name": "fpn_p4_1x1_bias", 
      "attr": {
        "kernel": "(1, 1)", 
        "num_filter": "32", 
        "pad": "(0, 0)", 
        "stride": "(1, 1)"
      }, 
      "inputs": []
    }, 
    {
      "op": "Convolution", 
      "name": "fpn_p4_1x1", 
      "attr": {
        "kernel": "(1, 1)", 
        "num_filter": "32", 
        "pad": "(0, 0)", 
        "stride": "(1, 1)"
      }, 
      "inputs": [[139, 0, 0], [187, 0, 0], [188, 0, 0]]
    }, 
    {
      "op": "elemwise_add", 
      "name": "_plus8", 
      "inputs": [[186, 0, 0], [189, 0, 0]]
    }, 
    {
      "op": "null", 
      "name": "fpn_p4_upsample_weight", 
      "attr": {
        "kernel": "(2, 2)", 
        "no_bias": "0", 
        "num_filter": "32", 
        "pad": "(0, 0)", 
        "stride": "(2, 2)"
      }, 
      "inputs": []
    }, 
    {
      "op": "null", 
      "name": "fpn_p4_upsample_bias", 
      "attr": {
        "kernel": "(2, 2)", 
        "no_bias": "0", 
        "num_filter": "32", 
        "pad": "(0, 0)", 
        "stride": "(2, 2)"
      }, 
      "inputs": []
    }, 
    {
      "op": "Deconvolution", 
      "name": "fpn_p4_upsample", 
      "attr": {
        "kernel": "(2, 2)", 
        "no_bias": "0", 
        "num_filter": "32", 
        "pad": "(0, 0)", 
        "stride": "(2, 2)"
      }, 
      "inputs": [[190, 0, 0], [191, 0, 0], [192, 0, 0]]
    }, 
    {
      "op": "null", 
      "name": "fpn_p3_1x1_weight", 
      "attr": {
        "kernel": "(1, 1)", 
        "num_filter": "32", 
        "pad": "(0, 0)", 
        "stride": "(1, 1)"
      }, 
      "inputs": []
    }, 
    {
      "op": "null", 
      "name": "fpn_p3_1x1_bias", 
      "attr": {
        "kernel": "(1, 1)", 
        "num_filter": "32", 
        "pad": "(0, 0)", 
        "stride": "(1, 1)"
      }, 
      "inputs": []
    }, 
    {
      "op": "Convolution", 
      "name": "fpn_p3_1x1", 
      "attr": {
        "kernel": "(1, 1)", 
        "num_filter": "32", 
        "pad": "(0, 0)", 
        "stride": "(1, 1)"
      }, 
      "inputs": [[98, 0, 0], [194, 0, 0], [195, 0, 0]]
    }, 
    {
      "op": "elemwise_add", 
      "name": "_plus9", 
      "inputs": [[193, 0, 0], [196, 0, 0]]
    }, 
    {
      "op": "null", 
      "name": "fpn_p3_weight", 
      "attr": {
        "kernel": "(3, 3)", 
        "num_filter": "32", 
        "pad": "(1, 1)", 
        "stride": "(1, 1)"
      }, 
      "inputs": []
    }, 
    {
      "op": "null", 
      "name": "fpn_p3_bias", 
      "attr": {
        "kernel": "(3, 3)", 
        "num_filter": "32", 
        "pad": "(1, 1)", 
        "stride": "(1, 1)"
      }, 
      "inputs": []
    }, 
    {
      "op": "Convolution", 
      "name": "fpn_p3", 
      "attr": {
        "kernel": "(3, 3)", 
        "num_filter": "32", 
        "pad": "(1, 1)", 
        "stride": "(1, 1)"
      }, 
      "inputs": [[197, 0, 0], [198, 0, 0], [199, 0, 0]]
    }, 
    {
      "op": "null", 
      "name": "retinanet_bbox_conv_stride8_n0_weight", 
      "attr": {
        "kernel": "(3, 3)", 
        "num_filter": "32", 
        "pad": "(1, 1)", 
        "stride": "(1, 1)"
      }, 
      "inputs": []
    }, 
    {
      "op": "null", 
      "name": "retinanet_bbox_conv_stride8_n0_bias", 
      "attr": {
        "kernel": "(3, 3)", 
        "num_filter": "32", 
        "pad": "(1, 1)", 
        "stride": "(1, 1)"
      }, 
      "inputs": []
    }, 
    {
      "op": "Convolution", 
      "name": "retinanet_bbox_conv_stride8_n0", 
      "attr": {
        "kernel": "(3, 3)", 
        "num_filter": "32", 
        "pad": "(1, 1)", 
        "stride": "(1, 1)"
      }, 
      "inputs": [[200, 0, 0], [201, 0, 0], [202, 0, 0]]
    }, 
    {
      "op": "Activation", 
      "name": "retinanet_bbox_relu_stride8_n0", 
      "attr": {"act_type": "relu"}, 
      "inputs": [[203, 0, 0]]
    }, 
    {
      "op": "null", 
      "name": "retinanet_bbox_pred_stride8_weight", 
      "attr": {
        "kernel": "(3, 3)", 
        "num_filter": "36", 
        "pad": "(1, 1)", 
        "stride": "(1, 1)"
      }, 
      "inputs": []
    }, 
    {
      "op": "null", 
      "name": "retinanet_bbox_pred_stride8_bias", 
      "attr": {
        "kernel": "(3, 3)", 
        "num_filter": "36", 
        "pad": "(1, 1)", 
        "stride": "(1, 1)"
      }, 
      "inputs": []
    }, 
    {
      "op": "Convolution", 
      "name": "retinanet_bbox_pred_stride8", 
      "attr": {
        "kernel": "(3, 3)", 
        "num_filter": "36", 
        "pad": "(1, 1)", 
        "stride": "(1, 1)"
      }, 
      "inputs": [[204, 0, 0], [205, 0, 0], [206, 0, 0]]
    }, 
    {
      "op": "Reshape", 
      "name": "reshape0", 
      "attr": {"shape": "(0, -4, 9, 4, -2)"}, 
      "inputs": [[207, 0, 0]]
    }, 
    {
      "op": "null", 
      "name": "retinanet_cls_conv_stride8_n0_weight", 
      "attr": {
        "kernel": "(3, 3)", 
        "num_filter": "32", 
        "pad": "(1, 1)", 
        "stride": "(1, 1)"
      }, 
      "inputs": []
    }, 
    {
      "op": "null", 
      "name": "retinanet_cls_conv_stride8_n0_bias", 
      "attr": {
        "kernel": "(3, 3)", 
        "num_filter": "32", 
        "pad": "(1, 1)", 
        "stride": "(1, 1)"
      }, 
      "inputs": []
    }, 
    {
      "op": "Convolution", 
      "name": "retinanet_cls_conv_stride8_n0", 
      "attr": {
        "kernel": "(3, 3)", 
        "num_filter": "32", 
        "pad": "(1, 1)", 
        "stride": "(1, 1)"
      }, 
      "inputs": [[200, 0, 0], [209, 0, 0], [210, 0, 0]]
    }, 
    {
      "op": "Activation", 
      "name": "retinanet_cls_relu_stride8_n0", 
      "attr": {"act_type": "relu"}, 
      "inputs": [[211, 0, 0]]
    }, 
    {
      "op": "null", 
      "name": "retinanet_cls_score_stride8_weight", 
      "attr": {
        "kernel": "(3, 3)", 
        "num_filter": "18", 
        "pad": "(1, 1)", 
        "stride": "(1, 1)"
      }, 
      "inputs": []
    }, 
    {
      "op": "null", 
      "name": "retinanet_cls_score_stride8_bias", 
      "attr": {
        "kernel": "(3, 3)", 
        "num_filter": "18", 
        "pad": "(1, 1)", 
        "stride": "(1, 1)"
      }, 
      "inputs": []
    }, 
    {
      "op": "Convolution", 
      "name": "retinanet_cls_score_stride8", 
      "attr": {
        "kernel": "(3, 3)", 
        "num_filter": "18", 
        "pad": "(1, 1)", 
        "stride": "(1, 1)"
      }, 
      "inputs": [[212, 0, 0], [213, 0, 0], [214, 0, 0]]
    }, 
    {
      "op": "Reshape", 
      "name": "reshape1", 
      "attr": {"shape": "(0, -4, 9, 2, -2)"}, 
      "inputs": [[215, 0, 0]]
    }, 
    {
      "op": "Concat", 
      "name": "concat0", 
      "attr": {
        "dim": "2", 
        "num_args": "2"
      }, 
      "inputs": [[208, 0, 0], [216, 0, 0]]
    }, 
    {
      "op": "Reshape", 
      "name": "retinanet_output_stride8", 
      "attr": {"shape": "(0, -3, -2)"}, 
      "inputs": [[217, 0, 0]]
    }, 
    {
      "op": "null", 
      "name": "fpn_p4_weight", 
      "attr": {
        "kernel": "(3, 3)", 
        "num_filter": "32", 
        "pad": "(1, 1)", 
        "stride": "(1, 1)"
      }, 
      "inputs": []
    }, 
    {
      "op": "null", 
      "name": "fpn_p4_bias", 
      "attr": {
        "kernel": "(3, 3)", 
        "num_filter": "32", 
        "pad": "(1, 1)", 
        "stride": "(1, 1)"
      }, 
      "inputs": []
    }, 
    {
      "op": "Convolution", 
      "name": "fpn_p4", 
      "attr": {
        "kernel": "(3, 3)", 
        "num_filter": "32", 
        "pad": "(1, 1)", 
        "stride": "(1, 1)"
      }, 
      "inputs": [[190, 0, 0], [219, 0, 0], [220, 0, 0]]
    }, 
    {
      "op": "null", 
      "name": "retinanet_bbox_conv_stride16_n0_weight", 
      "attr": {
        "kernel": "(3, 3)", 
        "num_filter": "32", 
        "pad": "(1, 1)", 
        "stride": "(1, 1)"
      }, 
      "inputs": []
    }, 
    {
      "op": "null", 
      "name": "retinanet_bbox_conv_stride16_n0_bias", 
      "attr": {
        "kernel": "(3, 3)", 
        "num_filter": "32", 
        "pad": "(1, 1)", 
        "stride": "(1, 1)"
      }, 
      "inputs": []
    }, 
    {
      "op": "Convolution", 
      "name": "retinanet_bbox_conv_stride16_n0", 
      "attr": {
        "kernel": "(3, 3)", 
        "num_filter": "32", 
        "pad": "(1, 1)", 
        "stride": "(1, 1)"
      }, 
      "inputs": [[221, 0, 0], [222, 0, 0], [223, 0, 0]]
    }, 
    {
      "op": "Activation", 
      "name": "retinanet_bbox_relu_stride16_n0", 
      "attr": {"act_type": "relu"}, 
      "inputs": [[224, 0, 0]]
    }, 
    {
      "op": "null", 
      "name": "retinanet_bbox_pred_stride16_weight", 
      "attr": {
        "kernel": "(3, 3)", 
        "num_filter": "36", 
        "pad": "(1, 1)", 
        "stride": "(1, 1)"
      }, 
      "inputs": []
    }, 
    {
      "op": "null", 
      "name": "retinanet_bbox_pred_stride16_bias", 
      "attr": {
        "kernel": "(3, 3)", 
        "num_filter": "36", 
        "pad": "(1, 1)", 
        "stride": "(1, 1)"
      }, 
      "inputs": []
    }, 
    {
      "op": "Convolution", 
      "name": "retinanet_bbox_pred_stride16", 
      "attr": {
        "kernel": "(3, 3)", 
        "num_filter": "36", 
        "pad": "(1, 1)", 
        "stride": "(1, 1)"
      }, 
      "inputs": [[225, 0, 0], [226, 0, 0], [227, 0, 0]]
    }, 
    {
      "op": "Reshape", 
      "name": "reshape2", 
      "attr": {"shape": "(0, -4, 9, 4, -2)"}, 
      "inputs": [[228, 0, 0]]
    }, 
    {
      "op": "null", 
      "name": "retinanet_cls_conv_stride16_n0_weight", 
      "attr": {
        "kernel": "(3, 3)", 
        "num_filter": "32", 
        "pad": "(1, 1)", 
        "stride": "(1, 1)"
      }, 
      "inputs": []
    }, 
    {
      "op": "null", 
      "name": "retinanet_cls_conv_stride16_n0_bias", 
      "attr": {
        "kernel": "(3, 3)", 
        "num_filter": "32", 
        "pad": "(1, 1)", 
        "stride": "(1, 1)"
      }, 
      "inputs": []
    }, 
    {
      "op": "Convolution", 
      "name": "retinanet_cls_conv_stride16_n0", 
      "attr": {
        "kernel": "(3, 3)", 
        "num_filter": "32", 
        "pad": "(1, 1)", 
        "stride": "(1, 1)"
      }, 
      "inputs": [[221, 0, 0], [230, 0, 0], [231, 0, 0]]
    }, 
    {
      "op": "Activation", 
      "name": "retinanet_cls_relu_stride16_n0", 
      "attr": {"act_type": "relu"}, 
      "inputs": [[232, 0, 0]]
    }, 
    {
      "op": "null", 
      "name": "retinanet_cls_score_stride16_weight", 
      "attr": {
        "kernel": "(3, 3)", 
        "num_filter": "18", 
        "pad": "(1, 1)", 
        "stride": "(1, 1)"
      }, 
      "inputs": []
    }, 
    {
      "op": "null", 
      "name": "retinanet_cls_score_stride16_bias", 
      "attr": {
        "kernel": "(3, 3)", 
        "num_filter": "18", 
        "pad": "(1, 1)", 
        "stride": "(1, 1)"
      }, 
      "inputs": []
    }, 
    {
      "op": "Convolution", 
      "name": "retinanet_cls_score_stride16", 
      "attr": {
        "kernel": "(3, 3)", 
        "num_filter": "18", 
        "pad": "(1, 1)", 
        "stride": "(1, 1)"
      }, 
      "inputs": [[233, 0, 0], [234, 0, 0], [235, 0, 0]]
    }, 
    {
      "op": "Reshape", 
      "name": "reshape3", 
      "attr": {"shape": "(0, -4, 9, 2, -2)"}, 
      "inputs": [[236, 0, 0]]
    }, 
    {
      "op": "Concat", 
      "name": "concat1", 
      "attr": {
        "dim": "2", 
        "num_args": "2"
      }, 
      "inputs": [[229, 0, 0], [237, 0, 0]]
    }, 
    {
      "op": "Reshape", 
      "name": "retinanet_output_stride16", 
      "attr": {"shape": "(0, -3, -2)"}, 
      "inputs": [[238, 0, 0]]
    }, 
    {
      "op": "null", 
      "name": "fpn_p5_weight", 
      "attr": {
        "kernel": "(3, 3)", 
        "num_filter": "32", 
        "pad": "(1, 1)", 
        "stride": "(1, 1)"
      }, 
      "inputs": []
    }, 
    {
      "op": "null", 
      "name": "fpn_p5_bias", 
      "attr": {
        "kernel": "(3, 3)", 
        "num_filter": "32", 
        "pad": "(1, 1)", 
        "stride": "(1, 1)"
      }, 
      "inputs": []
    }, 
    {
      "op": "Convolution", 
      "name": "fpn_p5", 
      "attr": {
        "kernel": "(3, 3)", 
        "num_filter": "32", 
        "pad": "(1, 1)", 
        "stride": "(1, 1)"
      }, 
      "inputs": [[183, 0, 0], [240, 0, 0], [241, 0, 0]]
    }, 
    {
      "op": "null", 
      "name": "retinanet_bbox_conv_stride32_n0_weight", 
      "attr": {
        "kernel": "(3, 3)", 
        "num_filter": "32", 
        "pad": "(1, 1)", 
        "stride": "(1, 1)"
      }, 
      "inputs": []
    }, 
    {
      "op": "null", 
      "name": "retinanet_bbox_conv_stride32_n0_bias", 
      "attr": {
        "kernel": "(3, 3)", 
        "num_filter": "32", 
        "pad": "(1, 1)", 
        "stride": "(1, 1)"
      }, 
      "inputs": []
    }, 
    {
      "op": "Convolution", 
      "name": "retinanet_bbox_conv_stride32_n0", 
      "attr": {
        "kernel": "(3, 3)", 
        "num_filter": "32", 
        "pad": "(1, 1)", 
        "stride": "(1, 1)"
      }, 
      "inputs": [[242, 0, 0], [243, 0, 0], [244, 0, 0]]
    }, 
    {
      "op": "Activation", 
      "name": "retinanet_bbox_relu_stride32_n0", 
      "attr": {"act_type": "relu"}, 
      "inputs": [[245, 0, 0]]
    }, 
    {
      "op": "null", 
      "name": "retinanet_bbox_pred_stride32_weight", 
      "attr": {
        "kernel": "(3, 3)", 
        "num_filter": "36", 
        "pad": "(1, 1)", 
        "stride": "(1, 1)"
      }, 
      "inputs": []
    }, 
    {
      "op": "null", 
      "name": "retinanet_bbox_pred_stride32_bias", 
      "attr": {
        "kernel": "(3, 3)", 
        "num_filter": "36", 
        "pad": "(1, 1)", 
        "stride": "(1, 1)"
      }, 
      "inputs": []
    }, 
    {
      "op": "Convolution", 
      "name": "retinanet_bbox_pred_stride32", 
      "attr": {
        "kernel": "(3, 3)", 
        "num_filter": "36", 
        "pad": "(1, 1)", 
        "stride": "(1, 1)"
      }, 
      "inputs": [[246, 0, 0], [247, 0, 0], [248, 0, 0]]
    }, 
    {
      "op": "Reshape", 
      "name": "reshape4", 
      "attr": {"shape": "(0, -4, 9, 4, -2)"}, 
      "inputs": [[249, 0, 0]]
    }, 
    {
      "op": "null", 
      "name": "retinanet_cls_conv_stride32_n0_weight", 
      "attr": {
        "kernel": "(3, 3)", 
        "num_filter": "32", 
        "pad": "(1, 1)", 
        "stride": "(1, 1)"
      }, 
      "inputs": []
    }, 
    {
      "op": "null", 
      "name": "retinanet_cls_conv_stride32_n0_bias", 
      "attr": {
        "kernel": "(3, 3)", 
        "num_filter": "32", 
        "pad": "(1, 1)", 
        "stride": "(1, 1)"
      }, 
      "inputs": []
    }, 
    {
      "op": "Convolution", 
      "name": "retinanet_cls_conv_stride32_n0", 
      "attr": {
        "kernel": "(3, 3)", 
        "num_filter": "32", 
        "pad": "(1, 1)", 
        "stride": "(1, 1)"
      }, 
      "inputs": [[242, 0, 0], [251, 0, 0], [252, 0, 0]]
    }, 
    {
      "op": "Activation", 
      "name": "retinanet_cls_relu_stride32_n0", 
      "attr": {"act_type": "relu"}, 
      "inputs": [[253, 0, 0]]
    }, 
    {
      "op": "null", 
      "name": "retinanet_cls_score_stride32_weight", 
      "attr": {
        "kernel": "(3, 3)", 
        "num_filter": "18", 
        "pad": "(1, 1)", 
        "stride": "(1, 1)"
      }, 
      "inputs": []
    }, 
    {
      "op": "null", 
      "name": "retinanet_cls_score_stride32_bias", 
      "attr": {
        "kernel": "(3, 3)", 
        "num_filter": "18", 
        "pad": "(1, 1)", 
        "stride": "(1, 1)"
      }, 
      "inputs": []
    }, 
    {
      "op": "Convolution", 
      "name": "retinanet_cls_score_stride32", 
      "attr": {
        "kernel": "(3, 3)", 
        "num_filter": "18", 
        "pad": "(1, 1)", 
        "stride": "(1, 1)"
      }, 
      "inputs": [[254, 0, 0], [255, 0, 0], [256, 0, 0]]
    }, 
    {
      "op": "Reshape", 
      "name": "reshape5", 
      "attr": {"shape": "(0, -4, 9, 2, -2)"}, 
      "inputs": [[257, 0, 0]]
    }, 
    {
      "op": "Concat", 
      "name": "concat2", 
      "attr": {
        "dim": "2", 
        "num_args": "2"
      }, 
      "inputs": [[250, 0, 0], [258, 0, 0]]
    }, 
    {
      "op": "Reshape", 
      "name": "retinanet_output_stride32", 
      "attr": {"shape": "(0, -3, -2)"}, 
      "inputs": [[259, 0, 0]]
    }, 
    {
      "op": "null", 
      "name": "fpn_p6_weight", 
      "attr": {
        "kernel": "(3, 3)", 
        "num_filter": "32", 
        "pad": "(1, 1)", 
        "stride": "(2, 2)"
      }, 
      "inputs": []
    }, 
    {
      "op": "null", 
      "name": "fpn_p6_bias", 
      "attr": {
        "kernel": "(3, 3)", 
        "num_filter": "32", 
        "pad": "(1, 1)", 
        "stride": "(2, 2)"
      }, 
      "inputs": []
    }, 
    {
      "op": "Convolution", 
      "name": "fpn_p6", 
      "attr": {
        "kernel": "(3, 3)", 
        "num_filter": "32", 
        "pad": "(1, 1)", 
        "stride": "(2, 2)"
      }, 
      "inputs": [[180, 0, 0], [261, 0, 0], [262, 0, 0]]
    }, 
    {
      "op": "null", 
      "name": "retinanet_bbox_conv_stride64_n0_weight", 
      "attr": {
        "kernel": "(3, 3)", 
        "num_filter": "32", 
        "pad": "(1, 1)", 
        "stride": "(1, 1)"
      }, 
      "inputs": []
    }, 
    {
      "op": "null", 
      "name": "retinanet_bbox_conv_stride64_n0_bias", 
      "attr": {
        "kernel": "(3, 3)", 
        "num_filter": "32", 
        "pad": "(1, 1)", 
        "stride": "(1, 1)"
      }, 
      "inputs": []
    }, 
    {
      "op": "Convolution", 
      "name": "retinanet_bbox_conv_stride64_n0", 
      "attr": {
        "kernel": "(3, 3)", 
        "num_filter": "32", 
        "pad": "(1, 1)", 
        "stride": "(1, 1)"
      }, 
      "inputs": [[263, 0, 0], [264, 0, 0], [265, 0, 0]]
    }, 
    {
      "op": "Activation", 
      "name": "retinanet_bbox_relu_stride64_n0", 
      "attr": {"act_type": "relu"}, 
      "inputs": [[266, 0, 0]]
    }, 
    {
      "op": "null", 
      "name": "retinanet_bbox_pred_stride64_weight", 
      "attr": {
        "kernel": "(3, 3)", 
        "num_filter": "36", 
        "pad": "(1, 1)", 
        "stride": "(1, 1)"
      }, 
      "inputs": []
    }, 
    {
      "op": "null", 
      "name": "retinanet_bbox_pred_stride64_bias", 
      "attr": {
        "kernel": "(3, 3)", 
        "num_filter": "36", 
        "pad": "(1, 1)", 
        "stride": "(1, 1)"
      }, 
      "inputs": []
    }, 
    {
      "op": "Convolution", 
      "name": "retinanet_bbox_pred_stride64", 
      "attr": {
        "kernel": "(3, 3)", 
        "num_filter": "36", 
        "pad": "(1, 1)", 
        "stride": "(1, 1)"
      }, 
      "inputs": [[267, 0, 0], [268, 0, 0], [269, 0, 0]]
    }, 
    {
      "op": "Reshape", 
      "name": "reshape6", 
      "attr": {"shape": "(0, -4, 9, 4, -2)"}, 
      "inputs": [[270, 0, 0]]
    }, 
    {
      "op": "null", 
      "name": "retinanet_cls_conv_stride64_n0_weight", 
      "attr": {
        "kernel": "(3, 3)", 
        "num_filter": "32", 
        "pad": "(1, 1)", 
        "stride": "(1, 1)"
      }, 
      "inputs": []
    }, 
    {
      "op": "null", 
      "name": "retinanet_cls_conv_stride64_n0_bias", 
      "attr": {
        "kernel": "(3, 3)", 
        "num_filter": "32", 
        "pad": "(1, 1)", 
        "stride": "(1, 1)"
      }, 
      "inputs": []
    }, 
    {
      "op": "Convolution", 
      "name": "retinanet_cls_conv_stride64_n0", 
      "attr": {
        "kernel": "(3, 3)", 
        "num_filter": "32", 
        "pad": "(1, 1)", 
        "stride": "(1, 1)"
      }, 
      "inputs": [[263, 0, 0], [272, 0, 0], [273, 0, 0]]
    }, 
    {
      "op": "Activation", 
      "name": "retinanet_cls_relu_stride64_n0", 
      "attr": {"act_type": "relu"}, 
      "inputs": [[274, 0, 0]]
    }, 
    {
      "op": "null", 
      "name": "retinanet_cls_score_stride64_weight", 
      "attr": {
        "kernel": "(3, 3)", 
        "num_filter": "18", 
        "pad": "(1, 1)", 
        "stride": "(1, 1)"
      }, 
      "inputs": []
    }, 
    {
      "op": "null", 
      "name": "retinanet_cls_score_stride64_bias", 
      "attr": {
        "kernel": "(3, 3)", 
        "num_filter": "18", 
        "pad": "(1, 1)", 
        "stride": "(1, 1)"
      }, 
      "inputs": []
    }, 
    {
      "op": "Convolution", 
      "name": "retinanet_cls_score_stride64", 
      "attr": {
        "kernel": "(3, 3)", 
        "num_filter": "18", 
        "pad": "(1, 1)", 
        "stride": "(1, 1)"
      }, 
      "inputs": [[275, 0, 0], [276, 0, 0], [277, 0, 0]]
    }, 
    {
      "op": "Reshape", 
      "name": "reshape7", 
      "attr": {"shape": "(0, -4, 9, 2, -2)"}, 
      "inputs": [[278, 0, 0]]
    }, 
    {
      "op": "Concat", 
      "name": "concat3", 
      "attr": {
        "dim": "2", 
        "num_args": "2"
      }, 
      "inputs": [[271, 0, 0], [279, 0, 0]]
    }, 
    {
      "op": "Reshape", 
      "name": "retinanet_output_stride64", 
      "attr": {"shape": "(0, -3, -2)"}, 
      "inputs": [[280, 0, 0]]
    }, 
    {
      "op": "Activation", 
      "name": "fpn_p6_relu", 
      "attr": {"act_type": "relu"}, 
      "inputs": [[263, 0, 0]]
    }, 
    {
      "op": "null", 
      "name": "fpn_p7_weight", 
      "attr": {
        "kernel": "(3, 3)", 
        "num_filter": "32", 
        "pad": "(1, 1)", 
        "stride": "(2, 2)"
      }, 
      "inputs": []
    }, 
    {
      "op": "null", 
      "name": "fpn_p7_bias", 
      "attr": {
        "kernel": "(3, 3)", 
        "num_filter": "32", 
        "pad": "(1, 1)", 
        "stride": "(2, 2)"
      }, 
      "inputs": []
    }, 
    {
      "op": "Convolution", 
      "name": "fpn_p7", 
      "attr": {
        "kernel": "(3, 3)", 
        "num_filter": "32", 
        "pad": "(1, 1)", 
        "stride": "(2, 2)"
      }, 
      "inputs": [[282, 0, 0], [283, 0, 0], [284, 0, 0]]
    }, 
    {
      "op": "null", 
      "name": "retinanet_bbox_conv_stride128_n0_weight", 
      "attr": {
        "kernel": "(3, 3)", 
        "num_filter": "32", 
        "pad": "(1, 1)", 
        "stride": "(1, 1)"
      }, 
      "inputs": []
    }, 
    {
      "op": "null", 
      "name": "retinanet_bbox_conv_stride128_n0_bias", 
      "attr": {
        "kernel": "(3, 3)", 
        "num_filter": "32", 
        "pad": "(1, 1)", 
        "stride": "(1, 1)"
      }, 
      "inputs": []
    }, 
    {
      "op": "Convolution", 
      "name": "retinanet_bbox_conv_stride128_n0", 
      "attr": {
        "kernel": "(3, 3)", 
        "num_filter": "32", 
        "pad": "(1, 1)", 
        "stride": "(1, 1)"
      }, 
      "inputs": [[285, 0, 0], [286, 0, 0], [287, 0, 0]]
    }, 
    {
      "op": "Activation", 
      "name": "retinanet_bbox_relu_stride128_n0", 
      "attr": {"act_type": "relu"}, 
      "inputs": [[288, 0, 0]]
    }, 
    {
      "op": "null", 
      "name": "retinanet_bbox_pred_stride128_weight", 
      "attr": {
        "kernel": "(3, 3)", 
        "num_filter": "36", 
        "pad": "(1, 1)", 
        "stride": "(1, 1)"
      }, 
      "inputs": []
    }, 
    {
      "op": "null", 
      "name": "retinanet_bbox_pred_stride128_bias", 
      "attr": {
        "kernel": "(3, 3)", 
        "num_filter": "36", 
        "pad": "(1, 1)", 
        "stride": "(1, 1)"
      }, 
      "inputs": []
    }, 
    {
      "op": "Convolution", 
      "name": "retinanet_bbox_pred_stride128", 
      "attr": {
        "kernel": "(3, 3)", 
        "num_filter": "36", 
        "pad": "(1, 1)", 
        "stride": "(1, 1)"
      }, 
      "inputs": [[289, 0, 0], [290, 0, 0], [291, 0, 0]]
    }, 
    {
      "op": "Reshape", 
      "name": "reshape8", 
      "attr": {"shape": "(0, -4, 9, 4, -2)"}, 
      "inputs": [[292, 0, 0]]
    }, 
    {
      "op": "null", 
      "name": "retinanet_cls_conv_stride128_n0_weight", 
      "attr": {
        "kernel": "(3, 3)", 
        "num_filter": "32", 
        "pad": "(1, 1)", 
        "stride": "(1, 1)"
      }, 
      "inputs": []
    }, 
    {
      "op": "null", 
      "name": "retinanet_cls_conv_stride128_n0_bias", 
      "attr": {
        "kernel": "(3, 3)", 
        "num_filter": "32", 
        "pad": "(1, 1)", 
        "stride": "(1, 1)"
      }, 
      "inputs": []
    }, 
    {
      "op": "Convolution", 
      "name": "retinanet_cls_conv_stride128_n0", 
      "attr": {
        "kernel": "(3, 3)", 
        "num_filter": "32", 
        "pad": "(1, 1)", 
        "stride": "(1, 1)"
      }, 
      "inputs": [[285, 0, 0], [294, 0, 0], [295, 0, 0]]
    }, 
    {
      "op": "Activation", 
      "name": "retinanet_cls_relu_stride128_n0", 
      "attr": {"act_type": "relu"}, 
      "inputs": [[296, 0, 0]]
    }, 
    {
      "op": "null", 
      "name": "retinanet_cls_score_stride128_weight", 
      "attr": {
        "kernel": "(3, 3)", 
        "num_filter": "18", 
        "pad": "(1, 1)", 
        "stride": "(1, 1)"
      }, 
      "inputs": []
    }, 
    {
      "op": "null", 
      "name": "retinanet_cls_score_stride128_bias", 
      "attr": {
        "kernel": "(3, 3)", 
        "num_filter": "18", 
        "pad": "(1, 1)", 
        "stride": "(1, 1)"
      }, 
      "inputs": []
    }, 
    {
      "op": "Convolution", 
      "name": "retinanet_cls_score_stride128", 
      "attr": {
        "kernel": "(3, 3)", 
        "num_filter": "18", 
        "pad": "(1, 1)", 
        "stride": "(1, 1)"
      }, 
      "inputs": [[297, 0, 0], [298, 0, 0], [299, 0, 0]]
    }, 
    {
      "op": "Reshape", 
      "name": "reshape9", 
      "attr": {"shape": "(0, -4, 9, 2, -2)"}, 
      "inputs": [[300, 0, 0]]
    }, 
    {
      "op": "Concat", 
      "name": "concat4", 
      "attr": {
        "dim": "2", 
        "num_args": "2"
      }, 
      "inputs": [[293, 0, 0], [301, 0, 0]]
    }, 
    {
      "op": "Reshape", 
      "name": "retinanet_output_stride128", 
      "attr": {"shape": "(0, -3, -2)"}, 
      "inputs": [[302, 0, 0]]
    }, 
    {
      "op": "null", 
      "name": "im_info", 
      "inputs": []
    }
  ], 
  "arg_nodes": [
    0, 
    1, 
    3, 
    4, 
    5, 
    6, 
    9, 
    11, 
    12, 
    13, 
    14, 
    17, 
    19, 
    20, 
    21, 
    22, 
    25, 
    27, 
    28, 
    29, 
    30, 
    32, 
    34, 
    35, 
    36, 
    37, 
    41, 
    43, 
    44, 
    45, 
    46, 
    49, 
    51, 
    52, 
    53, 
    54, 
    58, 
    60, 
    61, 
    62, 
    63, 
    66, 
    68, 
    69, 
    70, 
    71, 
    73, 
    75, 
    76, 
    77, 
    78, 
    82, 
    84, 
    85, 
    86, 
    87, 
    90, 
    92, 
    93, 
    94, 
    95, 
    99, 
    101, 
    102, 
    103, 
    104, 
    107, 
    109, 
    110, 
    111, 
    112, 
    114, 
    116, 
    117, 
    118, 
    119, 
    123, 
    125, 
    126, 
    127, 
    128, 
    131, 
    133, 
    134, 
    135, 
    136, 
    140, 
    142, 
    143, 
    144, 
    145, 
    148, 
    150, 
    151, 
    152, 
    153, 
    155, 
    157, 
    158, 
    159, 
    160, 
    164, 
    166, 
    167, 
    168, 
    169, 
    172, 
    174, 
    175, 
    176, 
    177, 
    181, 
    182, 
    184, 
    185, 
    187, 
    188, 
    191, 
    192, 
    194, 
    195, 
    198, 
    199, 
    201, 
    202, 
    205, 
    206, 
    209, 
    210, 
    213, 
    214, 
    219, 
    220, 
    222, 
    223, 
    226, 
    227, 
    230, 
    231, 
    234, 
    235, 
    240, 
    241, 
    243, 
    244, 
    247, 
    248, 
    251, 
    252, 
    255, 
    256, 
    261, 
    262, 
    264, 
    265, 
    268, 
    269, 
    272, 
    273, 
    276, 
    277, 
    283, 
    284, 
    286, 
    287, 
    290, 
    291, 
    294, 
    295, 
    298, 
    299, 
    304
  ], 
  "node_row_ptr": [
    0, 
    1, 
    2, 
    3, 
    4, 
    5, 
    6, 
    7, 
    10, 
    11, 
    12, 
    13, 
    14, 
    15, 
    16, 
    17, 
    20, 
    21, 
    22, 
    23, 
    24, 
    25, 
    26, 
    27, 
    30, 
    31, 
    32, 
    33, 
    34, 
    35, 
    36, 
    37, 
    40, 
    41, 
    42, 
    43, 
    44, 
    45, 
    46, 
    49, 
    50, 
    51, 
    52, 
    53, 
    54, 
    55, 
    56, 
    57, 
    60, 
    61, 
    62, 
    63, 
    64, 
    65, 
    66, 
    67, 
    70, 
    71, 
    72, 
    73, 
    74, 
    75, 
    76, 
    77, 
    78, 
    81, 
    82, 
    83, 
    84, 
    85, 
    86, 
    87, 
    88, 
    91, 
    92, 
    93, 
    94, 
    95, 
    96, 
    97, 
    100, 
    101, 
    102, 
    103, 
    104, 
    105, 
    106, 
    107, 
    108, 
    111, 
    112, 
    113, 
    114, 
    115, 
    116, 
    117, 
    118, 
    121, 
    122, 
    123, 
    124, 
    125, 
    126, 
    127, 
    128, 
    129, 
    132, 
    133, 
    134, 
    135, 
    136, 
    137, 
    138, 
    139, 
    142, 
    143, 
    144, 
    145, 
    146, 
    147, 
    148, 
    151, 
    152, 
    153, 
    154, 
    155, 
    156, 
    157, 
    158, 
    159, 
    162, 
    163, 
    164, 
    165, 
    166, 
    167, 
    168, 
    169, 
    172, 
    173, 
    174, 
    175, 
    176, 
    177, 
    178, 
    179, 
    180, 
    183, 
    184, 
    185, 
    186, 
    187, 
    188, 
    189, 
    190, 
    193, 
    194, 
    195, 
    196, 
    197, 
    198, 
    199, 
    202, 
    203, 
    204, 
    205, 
    206, 
    207, 
    208, 
    209, 
    210, 
    213, 
    214, 
    215, 
    216, 
    217, 
    218, 
    219, 
    220, 
    223, 
    224, 
    225, 
    226, 
    227, 
    228, 
    229, 
    230, 
    231, 
    232, 
    233, 
    234, 
    235, 
    236, 
    237, 
    238, 
    239, 
    240, 
    241, 
    242, 
    243, 
    244, 
    245, 
    246, 
    247, 
    248, 
    249, 
    250, 
    251, 
    252, 
    253, 
    254, 
    255, 
    256, 
    257, 
    258, 
    259, 
    260, 
    261, 
    262, 
    263, 
    264, 
    265, 
    266, 
    267, 
    268, 
    269, 
    270, 
    271, 
    272, 
    273, 
    274, 
    275, 
    276, 
    277, 
    278, 
    279, 
    280, 
    281, 
    282, 
    283, 
    284, 
    285, 
    286, 
    287, 
    288, 
    289, 
    290, 
    291, 
    292, 
    293, 
    294, 
    295, 
    296, 
    297, 
    298, 
    299, 
    300, 
    301, 
    302, 
    303, 
    304, 
    305, 
    306, 
    307, 
    308, 
    309, 
    310, 
    311, 
    312, 
    313, 
    314, 
    315, 
    316, 
    317, 
    318, 
    319, 
    320, 
    321, 
    322, 
    323, 
    324, 
    325, 
    326, 
    327, 
    328, 
    329, 
    330, 
    331, 
    332, 
    333, 
    334, 
    335, 
    336, 
    337, 
    338, 
    339, 
    340, 
    341, 
    342, 
    343, 
    344, 
    345, 
    346, 
    347, 
    348, 
    349
  ], 
  "heads": [[218, 0, 0], [239, 0, 0], [260, 0, 0], [281, 0, 0], [303, 0, 0], [304, 0, 0]], 
  "attrs": {
    "build_version": ["str", "nnvm_1.3.0.1.1 commit 3c909c91e26a46803d61dea98ff8099f4244f19e Merge: 6f77dd8 797a12e Author: yifeng.geng <yifeng.geng@horizon.ai>"], 
    "mxnet_version": ["int", 10300]
  }
}